dynff-master/model/simplecnn.pth (torch, 252133 bytes, 10 tensors)

conv1.weight f4 [6, 3, 5, 5]
0	0x3d73b39e	0.05949747
1	0xbd50c1b1	-0.05096597
2	0xbcb76128	-0.022385195
3	0x3d5dfec8	0.054198056
4	0xbddea22d	-0.10870776
5	0x3d8dd29f	0.069249384
6	0xbcc29a15	-0.023755113
7	0x3d709e44	0.058744684
8	0x3c83801c	0.016052298
9	0xbc67a5b9	-0.014138632
10	0x3d032e9e	0.03202688
11	0x3bbaa865	0.0056963437
12	0x3d2cbd82	0.042172916
13	0xbd3850a8	-0.044998795
14	0xbc09eeea	-0.008418778
15	0xbc2a51b9	-0.010395461
16	0x3c891b60	0.016736686
17	0xb9f1d845	-0.00046128235
18	0x3dceb9ac	0.10094008
19	0x3d132ea1	0.03593314
20	0xbd30229f	-0.043001767
21	0xbd8ed38e	-0.069739446
22	0xbc9e8d83	-0.019354587
23	0xbd4c025b	-0.049806934
24	0xbd178fa0	-0.037002206
25	0x3bb52bb3	0.005528891
26	0x3d8cf950	0.0688349
27	0x3d808979	0.06276221
28	0xbde72c80	-0.112877846
29	0x3d9299b7	0.07158225
30	0x3d042122	0.03225816
31	0x3de05122	0.10952975
32	0x3d9c17bb	0.07621714
33	0xbdd777e1	-0.10520912
34	0xbde0d986	-0.10978989
35	0xbd64205a	-0.055694915
36	0x3dcfa880	0.10139561
37	0xbc9d900e	-0.01923373
38	0x3d4a68f4	0.049416497
39	0xbd5bcada	-0.05366025
40	0x3de80a82	0.11330129
41	0xbd481c64	-0.0488552
42	0x3db1581e	0.08659385
43	0x3ab338df	0.0013673565
44	0xbd792a98	-0.060831636
45	0x3d731c78	0.05935332
46	0xbd7b0f3d	-0.06129383
47	0x3d0b19f0	0.033960283
48	0xbd089278	-0.03334281
49	0xbc4f69c0	-0.01265949
50	0xbde35a04	-0.111011535
51	0xbd618050	-0.05505401
52	0x3d8052d3	0.062657975
53	0xbce5ef2b	-0.028068146
54	0x3deb8c67	0.11501389
55	0x3dbd8fd0	0.09255946
56	0xbbb12ae7	-0.0054067257
57	0xbd9dd922	-0.077074304
58	0x3d90024e	0.070316896
59	0x3d12c9c4	0.03583695
60	0xbd98ddf8	-0.07464212
61	0x3d999b25	0.075002946
62	0x3d8f91ad	0.07010207
63	0x3dd1bc3b	0.1024098
64	0xbd849009	-0.06472785
65	0xbc9bb4b2	-0.01900706
66	0xbb129876	-0.0022368706
67	0x3c8a2906	0.016865265
68	0xbdb37895	-0.087632336
69	0xbda7d03b	-0.08194014
70	0x3d80a5cc	0.06281623
71	0xbcddd029	-0.027076798
72	0x3d6707ef	0.05640405
73	0x3bd7b5b4	0.00658294
74	0x3d1b4bb4	0.037913993
75	0x3ccfffdc	0.025390558
76	0x3d2bf84d	0.041984845
77	0x3d6a7439	0.057239745
78	0xbddb026b	-0.106938206
79	0x3d6e115a	0.058122016
80	0xbda646c6	-0.08118968
81	0xbdb26da5	-0.08712319
82	0x3be61ad1	0.0070222397
83	0xbca13181	-0.019676926
84	0x3d8ae457	0.067818336
85	0xbd88f49f	-0.06687283
86	0xbdd23a94	-0.10265079
87	0x3dac1ace	0.0840355
88	0xbc8c43aa	-0.017122108
89	0x3d8502ea	0.064946964
90	0x3d180d12	0.03712184
91	0xbdb1551f	-0.08658814
92	0x3cbe092e	0.023197737
93	0x3ce33596	0.027735513
94	0xbd9e56ca	-0.077313974
95	0xbd6068b0	-0.054787338
96	0x3d214508	0.039372474
97	0x3ca97002	0.020683292
98	0xbd492fbe	-0.049117796
99	0xbd0f2c93	-0.03495462
100	0x3dd89723	0.10575702
101	0xbcaf046e	-0.021364417
102	0x3d8553b3	0.06510105
103	0x3d4ccba6	0.0499989
104	0xbd98dd34	-0.07464066
105	0xbdc91ca2	-0.098199144
106	0x3de2ff3e	0.1108384
107	0x3bc592e3	0.006029473
108	0x3da21955	0.07914988
109	0x3cc406cb	0.02392902
110	0x3d181dcc	0.03713779
111	0x3db0a48c	0.08625135
112	0x3de03c80	0.109490395
113	0xbd9cece7	-0.07662373
114	0x3c6c8998	0.014437102
115	0x3db07a17	0.08617037
116	0x3dab50fc	0.08365056
117	0x3d92e981	0.071734436
118	0xbdab25a0	-0.08356786
119	0xbdaa4acb	-0.08315047
120	0xbd8f049c	-0.06983301
121	0x3c6dabe2	0.014506312
122	0x3debb1a8	0.115084946
123	0xbd95615d	-0.07293961
124	0x3d7c08c1	0.061531786
125	0xbd82e3ee	-0.063911304
126	0xbdde583f	-0.10856675
127	0xbcc90c3c	-0.024541967
128	0x3d884123	0.06653049
129	0x3ddb8b69	0.1071995
130	0xbd92dd6b	-0.071711384
131	0x3ccd470e	0.025058296
132	0x3dcc0d2e	0.09963451
133	0x3d9cb4c2	0.07651664
134	0x3d9361a7	0.0719636
135	0x3da80d62	0.082056776
136	0x3d959444	0.0730367
137	0x3cf45499	0.029825496
138	0xbda1b62c	-0.07896075
139	0xbdc6969d	-0.09696696
140	0xbd58b8f3	-0.052910756
141	0xbc5c4cac	-0.013446014
142	0xbd90f3dc	-0.070777625
143	0x3d2d093e	0.042245142
144	0x3d126084	0.035736576
145	0xbcd6312d	-0.026146496
146	0x3d35c7a5	0.04437985
147	0x3d18daed	0.03731816
148	0x3d9061c3	0.070498966
149	0x3d9f41fc	0.077762574
150	0xbd202bc7	-0.03910425
151	0x3de70cb4	0.1128172
152	0xbc5ab6bc	-0.013349231
153	0xbb81fe5a	-0.0039670886
154	0xbddf3616	-0.10898988
155	0xbd98343e	-0.074318394
156	0xbd8a276c	-0.067458004
157	0xbd4a4c51	-0.049389187
158	0x3da821c9	0.08209569
159	0xbd1a8e5d	-0.037733424
160	0xbdb0b814	-0.0862886
161	0x3d35f92e	0.04442709
162	0x3d176dda	0.036969997
163	0x3d992ae9	0.074788876
164	0xbd74bf13	-0.059752535
165	0x3ccd178a	0.025035638
166	0xbd2c2eee	-0.042036943
167	0xbcd486d5	-0.0259432
168	0xbdbc7517	-0.092020206
169	0xbd578f23	-0.05262674
170	0xbd10d96b	-0.035363596
171	0x3d4a41b6	0.049379073
172	0x3caccfc1	0.021095159
173	0x3ce9a911	0.028523
174	0x3dec08da	0.11525126
175	0x3de67b86	0.11254029
176	0x3da14ad6	0.07875602
177	0x3b70f96a	0.0036769756
178	0xbda398c0	-0.07988119
179	0x3db8d040	0.090240955
180	0xbcec8aec	-0.028874837
181	0xbc18f2bd	-0.009335217
182	0xbdcbbac5	-0.09947733
183	0xbcbad92e	-0.022808637
184	0xbd988748	-0.07447678
185	0x3dd94e2a	0.10610612
186	0xbdcc71ba	-0.09982629
187	0xbdb8558b	-0.09000691
188	0xbb807b2f	-0.0039209346
189	0xbd7fbd5b	-0.062436443
190	0x3d293b87	0.041316535
191	0xbd360e75	-0.04444738
192	0xbd5e255d	-0.05423485
193	0x3bd64d17	0.0065399515
194	0x3dab3077	0.08358853
195	0xbda658f7	-0.081224374
196	0x3d5e1b84	0.05422546
197	0x3d97ed1f	0.07418274
198	0x3de753a2	0.112952486
199	0xbda58583	-0.08082106
200	0x3ce51847	0.027965678
201	0xbdaedc94	-0.08538166
202	0x3dc9e5aa	0.09858258
203	0xbd37775b	-0.04479156
204	0x3d8e722c	0.0695537
205	0x3b614b36	0.0034377105
206	0xbc1357da	-0.008993113
207	0xbb7175e4	-0.003684395
208	0x3ca0cd90	0.01962927
209	0x3d5ef43a	0.05443213
210	0x3c97b550	0.018519074
211	0x3d1047c8	0.035224706
212	0xbdd4b8d5	-0.103868164
213	0x3dac4957	0.08412426
214	0x3dce2e43	0.100674175
215	0x3dc37a5a	0.09544821
216	0x3daed037	0.085358076
217	0xbdaaa740	-0.08332682
218	0xbd2f5408	-0.042804748
219	0x3dd08344	0.10181287
220	0xbdb41e7a	-0.087948754
221	0x3dd68ac6	0.10475688
222	0xbdb9fe20	-0.090816736
223	0xbda69496	-0.08133809
224	0x3d6738ec	0.05645077
225	0xbda9e903	-0.082963966
226	0xbcd8b6a0	-0.02645427
227	0x3dac0a0a	0.08400352
228	0x3dbb50b7	0.091462545
229	0x3ddfa7a3	0.10920646
230	0xbcbff223	-0.02343089
231	0xbdb7cf07	-0.08975034
232	0x3de8d7ea	0.11369307
233	0xbcc9820b	-0.024598142
234	0xbd429835	-0.047508437
235	0x3ce697d7	0.028148575
236	0xbda560cc	-0.08075103
237	0x3d9b6f75	0.07589618
238	0x3d943620	0.07236886
239	0xbdbba502	-0.09162332
240	0xbdc23d86	-0.09484391
241	0xbc25b864	-0.010114763
242	0x3d46a851	0.048500363
243	0xbb5b2b5c	-0.0033442592
244	0xbd6fd482	-0.058552273
245	0x3b2d029e	0.0026399265
246	0xbdde4716	-0.10853402
247	0xbda72300	-0.081609726
248	0xbd9d6c8b	-0.076867186
249	0x3dc2c02a	0.09509309
250	0x3dd075fa	0.10178752
251	0xbd20a68d	-0.039221335
252	0x3ba9b387	0.005178872
253	0x3d52ee9e	0.051497094
254	0x3c62ad88	0.013835318
255	0xbd6cd6af	-0.057821926

conv1.bias f4 [6]
0	0x3d1e7586	0.038686298
1	0x3d8170e7	0.063203625
2	0x3dea6a6f	0.11446082
3	0xbc45b939	-0.012068086
4	0x3de37dc5	0.11107973
5	0x3d97ece7	0.074182324

conv2.weight f4 [16, 6, 5, 5]
0	0xbd25de65	-0.040495295
1	0xbd80fbaa	-0.06298001
2	0x3d3b92d7	0.045794334
3	0xbd373adf	-0.04473388
4	0x3d19678f	0.037452277
5	0xbd8f364d	-0.06992779
6	0x3d73fec4	0.059569135
7	0x3cc87933	0.024471855
8	0xbc19ca92	-0.009386675
9	0x3d1961d8	0.037446827
10	0xbd6e19ef	-0.0581302
11	0xbc923873	-0.017849183
12	0x3a51d4fc	0.00080044544
13	0xbd413f24	-0.047179356
14	0xbcaae980	-0.020863295
15	0xbd103a43	-0.035211813
16	0x3d9f5d83	0.07781508
17	0x3d8e0edf	0.0693643
18	0x3d903902	0.070421234
19	0x3d88ac7b	0.06673523
20	0xbda02575	-0.07819644
21	0x3cdfbd6c	0.027312003
22	0x3cf68a16	0.030095141
23	0xbd754d6b	-0.059888285
24	0x3d078f9b	0.033095937
25	0xbd35789b	-0.04430447
26	0x3c54b96d	0.012983662
27	0x3cdd8cfa	0.027044762
28	0x3d904ac1	0.07045508
29	0xbd2f7359	-0.042834613
30	0xbd839036	-0.064239904
31	0x3d9ab866	0.075547025
32	0x3d0c62cb	0.034273904
33	0x3d228d5d	0.039685596
34	0x3cf0c55f	0.029390989
35	0xbcecc152	-0.028900776
36	0x3d492e1b	0.049116235
37	0xbd91fccd	-0.07128296
38	0x3c3a2abe	0.01136273
39	0x3d172dc7	0.03690889
40	0x3d648098	0.0557867
41	0xbd270212	-0.04077346
42	0xbd620ae1	-0.055186156
43	0x3cfab6b7	0.030604703
44	0xbd84cc88	-0.06484324
45	0xbd8af819	-0.06785602
46	0xbd9661f7	-0.07342904
47	0xbd222e1c	-0.039594755
48	0xbc7f58ae	-0.015585108
49	0xbd460d27	-0.048352387
50	0xbd0d68a2	-0.034523614
51	0xbd9411df	-0.07229971
52	0x3d4d8f3f	0.05018544
53	0xbc992010	-0.018692046
54	0xbd5302f2	-0.05151648
55	0x3cae250b	0.021257898
56	0xbd7a0fac	-0.061050102
57	0x3d6a1a48	0.05715397
58	0x3d404e76	0.046949826
59	0xbda453db	-0.08023807
60	0xbd8341ec	-0.06409058
61	0xbd5c8519	-0.05383787
62	0xbd350a8b	-0.044199508
63	0x3c27089f	0.0101949265
64	0xbda55aeb	-0.08073982
65	0xbd77f0c6	-0.060532354
66	0x3d18bb7e	0.03728818
67	0xbcdb108a	-0.026741285
68	0xbd051479	-0.032490227
69	0xbd8a5634	-0.06754723
70	0x3d078d19	0.033093546
71	0x3bbceee4	0.0057657827
72	0xbd01451e	-0.031560056
73	0xbd4ccdc7	-0.050000932
74	0x3c8e4042	0.017364625
75	0x3cb5febf	0.022216199
76	0x3d14718c	0.0362411
77	0x3cc6c6a9	0.02426465
78	0xbc4c1135	-0.012455274
79	0xbd8171ff	-0.06320571
80	0x3d54e7c8	0.051978856
81	0xba377a1c	-0.0006999092
82	0xbd5e4338	-0.054263324
83	0x3d903522	0.07041384
84	0x3d3a76f2	0.04552359
85	0xbd836c05	-0.064170875
86	0xbd270607	-0.040777232
87	0xbce39eea	-0.027785737
88	0xbd41109d	-0.047134984
89	0x3d1c2d7e	0.038129322
90	0xbd6e95e0	-0.0582484
91	0x3d9b685e	0.07588266
92	0xbd0a3bfc	-0.03374861
93	0x3d4568f2	0.048195787
94	0x3b363a35	0.002780569
95	0xbd131519	-0.035908792
96	0x3d5f54cf	0.05452424
97	0xbd7f2fcb	-0.06230144
98	0xbd30f1d0	-0.04319936
99	0x3c2057d1	0.009786562
100	0x3d84a674	0.06477061
101	0xbd0f4a94	-0.034983233
102	0xbd4ba625	-0.049718995
103	0xbd558287	-0.052126434
104	0xbd137214	-0.035997465
105	0xbce70d67	-0.028204633
106	0xbc9bcb83	-0.01901794
107	0xbd3e41ab	-0.046449345
108	0x3cd10da8	0.025519207
109	0x3a2dd506	0.0006631169
110	0xbd5a82b1	-0.053347293
111	0xbd3efc32	-0.04662723
112	0x3c8da2ad	0.017289484
113	0xba98e19f	-0.001166392
114	0x3d6cb270	0.05778736
115	0xbc4acc1f	-0.012377768
116	0xbd8776c9	-0.06614453
117	0xbd775a91	-0.060389105
118	0xbcc454cc	-0.023966216
119	0xbc9423e6	-0.018083524
120	0x3c18aad6	0.009318074
121	0xbc960239	-0.018311607
122	0x3cf6cc6d	0.030126775
123	0xbcde74e7	-0.027155353
124	0x3d75761c	0.05992709
125	0x3c99a1c9	0.018753903
126	0xbccda2c3	-0.025102025
127	0x3d950678	0.072766244
128	0x3caac26f	0.020844666
129	0xbd6347b1	-0.055488292
130	0xbd3a20f7	-0.045441594
131	0x3d51b270	0.051195562
132	0x3d18be90	0.03729111
133	0x3d829030	0.06375158
134	0xbbcd852a	-0.006271978
135	0x3d69e981	0.057107452
136	0x3d26465e	0.04059445
137	0x3ccedaa5	0.025250742
138	0xbc9acee3	-0.01889748
139	0x3da1325c	0.078709334
140	0x3c875b18	0.01652293
141	0xbcac9424	-0.021066733
142	0xba98281d	-0.0011608634
143	0x3da46247	0.080265574
144	0x3d609ffa	0.054840066
145	0xbbc64559	-0.0060507474
146	0x3da3ef6d	0.08004651
147	0x3d12dcf7	0.03585526
148	0xbd320f5a	-0.04347167
149	0xbd982e2d	-0.07430682
150	0x3d425ab1	0.04744977
151	0x3d9cd2af	0.07657372
152	0xbd42d9f1	-0.047571126
153	0x3d095c65	0.03353538
154	0x3b63cc79	0.0034759326
155	0xbc8f0457	-0.017458124
156	0xbcb5dfb3	-0.022201395
157	0x3cba14f2	0.022715066
158	0x3c93751c	0.018000178
159	0x3d61e1b5	0.05514689
160	0x3cf4db87	0.029889835
161	0x3d183020	0.03715527
162	0x3d938352	0.07202782
163	0x3cd0470c	0.025424503
164	0x3c469424	0.01212028
165	0xbcf38365	-0.02972574
166	0x3d7545c6	0.059880994
167	0x3c458f79	0.012058132
168	0x3d57914b	0.052628797
169	0x3da17956	0.07884471
170	0xbc95987d	-0.018261189
171	0x3d6b7a36	0.057489596
172	0xbc87d5d6	-0.016581457
173	0x3d96e727	0.073683076
174	0x3d839ded	0.06426606
175	0xbcefbf8f	-0.029266147
176	0x3b3fe846	0.0029282733
177	0xbd120d20	-0.03565705
178	0xbd07431a	-0.033022977
179	0xbc876cdb	-0.016531399
180	0xba11ed02	-0.0005566628
181	0xbce92a36	-0.02846251
182	0xbd9dda9f	-0.07707714
183	0xbd4a46d4	-0.049383953
184	0xbbe4a1be	-0.006977289
185	0xbcd5865e	-0.026065048
186	0x3d7867a5	0.060645718
187	0x3d87ecba	0.06636949
188	0x3d550eab	0.05201594
189	0x3d140401	0.03613663
190	0xbd849092	-0.06472887
191	0x3d9dfb6d	0.07713971
192	0xbd935ac9	-0.0719505
193	0xbcdbe59b	-0.026842883
194	0xbd6b61c7	-0.057466295
195	0x3cf086f3	0.029361224
196	0xbd8b2526	-0.06794195
197	0xbd24e026	-0.040252827
198	0xbd547030	-0.051864803
199	0xbd4d92dc	-0.050188884
200	0xbd1c1f15	-0.03811558
201	0x3da460fd	0.080263115
202	0xbbda8792	-0.0066689933
203	0x3ccbe44d	0.024889136
204	0xbda5fec1	-0.08105231
205	0x3d94ad2e	0.07259594
206	0xbc91a6ca	-0.017779727
207	0xbd9976b8	-0.07493347
208	0x3d667afc	0.05626963
209	0xbcb4dc03	-0.022077566
210	0x3d97db42	0.07414867
211	0xbd63290d	-0.05545907
212	0xbd9b4049	-0.07580621
213	0xbd7b3f3f	-0.061339613
214	0x3d10def1	0.035368863
215	0xbc160634	-0.009156752
216	0xbd9aea19	-0.07564182
217	0x3c780a88	0.01513923
218	0xbbaa8a7b	-0.0052044964
219	0x3cf1a4d3	0.02949754
220	0xbd2a1f15	-0.04153355
221	0xbd6ec031	-0.058288757
222	0x3d63f25f	0.055651065
223	0xbd20ee6b	-0.039289873
224	0x3d6b4130	0.057435215
225	0x3d8794ed	0.06620202
226	0xbd69e1fe	-0.05710029
227	0xbd1a305d	-0.03764378
228	0x3c2109fa	0.009829039
229	0xbd9daa27	-0.076984696
230	0x3ccd6a96	0.025075238
231	0xbd0b58e1	-0.03402031
232	0xbd14482c	-0.03620164
233	0xbd814565	-0.06312064
234	0x3d1c74b1	0.038197223
235	0xbd551e78	-0.05203101
236	0xbd85a877	-0.06526273
237	0xbcafe5c5	-0.021471867
238	0xbd3a2e85	-0.04545452
239	0xbda291c9	-0.079379626
240	0x3d06c86f	0.032905992
241	0xbcfe7bd1	-0.0310649
242	0x3d6a42f9	0.057192776
243	0x3d6b6a7b	0.057474595
244	0xbd554b4b	-0.052073758
245	0xbd42f7b4	-0.04759951
246	0xbced6be8	-0.028982118
247	0x3d43e5ed	0.047826696
248	0xbb38327a	-0.0028106258
249	0xbceef3a4	-0.029168911
250	0x3d4f2d62	0.05058039
251	0x3d9e94bf	0.07743215
252	0x3d773f9d	0.0603634
253	0xbd7fbeef	-0.062437948
254	0xbc8aecbc	-0.016958587
255	0xbc804c55	-0.015661398

conv2.bias f4 [16]
0	0x3d3425cd	0.043981362
1	0x3d02d7ae	0.03194397
2	0x3d05869c	0.032599077
3	0x3d8db86e	0.06919943
4	0xbb61e293	-0.0034467324
5	0x3da3a0a0	0.07989621
6	0xbd91e2f7	-0.07123368
7	0xbd1c9a45	-0.03823306
8	0xbd866792	-0.06562723
9	0xbd667740	-0.05626607
10	0xbd78d848	-0.060753137
11	0xbd9e6c42	-0.07735492
12	0x3d9d19f2	0.07670964
13	0x3c802eac	0.015647255
14	0x3d2852d8	0.04109463
15	0xbcd8b55a	-0.026453663

fc1.weight f4 [120, 400]
0	0x3c820357	0.015870733
1	0xbd071f4f	-0.032988843
2	0xbba49d73	-0.005023652
3	0x3d2b5fda	0.041839458
4	0x3d070c8b	0.032970946
5	0x3c3cbeed	0.01152013
6	0xbcd9b400	-0.026575089
7	0xbcf0c70d	-0.02939179
8	0x3d351793	0.044211935
9	0x3bb685f3	0.005570167
10	0xbb6b7267	-0.0035926343
11	0xbd29de28	-0.04147163
12	0xbc88e55a	-0.016710926
13	0xbd448dc3	-0.047986757
14	0x3cb99ad0	0.022656828
15	0x3bb3541a	0.005472672
16	0xbc21acba	-0.009867841
17	0x3c849efa	0.016189087
18	0x3c0bb767	0.008527613
19	0x3c331a60	0.010931581
20	0x3d1c2965	0.038125414
21	0xbce10de0	-0.027472436
22	0xbb8f09b3	-0.00436517
23	0x3d2d968b	0.042379897
24	0xbb8638cd	-0.0040961266
25	0x3ab02b33	0.0013440609
26	0x3cfc9397	0.030832095
27	0x3b91e4da	0.00445233
28	0xbb7d921a	-0.003869182
29	0x3cdbf770	0.026851386
30	0x3c8f07bd	0.017459745
31	0xbd46fb2a	-0.048579372
32	0x3c9e803a	0.019348253
33	0xbc1b4bad	-0.009478492
34	0x3c0e6800	0.008691788
35	0x3b54854d	0.0032428086
36	0x3d07b488	0.033131152
37	0xbd31feef	-0.043456014
38	0x3ca9eb00	0.02074194
39	0x3cd7ee50	0.026358753
40	0xbd16c14a	-0.03680543
41	0xbbb26ab3	-0.0054448484
42	0x3cd82e2a	0.0263892
43	0x3c0076ba	0.007840807
44	0x3d069f3f	0.032866713
45	0x3d24ff33	0.04028244
46	0x3d3025a2	0.04300464
47	0x3d49f97d	0.049310196
48	0x3d4537f7	0.048149075
49	0xbbea38f3	-0.007147902
50	0xbc319fcd	-0.010841322
51	0xbd144fc3	-0.03620888
52	0xbc33618d	-0.010948551
53	0x3c6917e0	0.014226884
54	0x3cd3a17a	0.025833834
55	0x3b719680	0.0036863387
56	0x3cfaf7d7	0.030635757
57	0x3d3523e3	0.044223677
58	0x3d06d6d0	0.032919705
59	0x3c30eced	0.010798675
60	0xbb155c00	-0.0022790432
61	0xbd0743d8	-0.033023685
62	0x3cee691a	0.02910285
63	0xbcb0b987	-0.021572841
64	0xba896367	-0.0010481895
65	0x3d1ef6dd	0.038809646
66	0x3d4b492b	0.049630325
67	0xbbb4b427	-0.00551464
68	0x3d1165b8	0.035497397
69	0x3d2592b7	0.04042312
70	0xbd011fdd	-0.031524528
71	0xbbea6cb3	-0.0071540712
72	0x3c8c2c87	0.017111076
73	0x3d04c612	0.032415457
74	0xbd1854f5	-0.037190396
75	0xbc974363	-0.01846475
76	0x3d16732d	0.036730934
77	0x3d1e5945	0.038659353
78	0xbcafcdc7	-0.021460427
79	0x3cf3a6ea	0.029742677
80	0x3b8e5a00	0.004344225
81	0xbcb5ca9d	-0.02219134
82	0x3cbac90a	0.022800941
83	0x3d1ebcf8	0.038754433
84	0xbd1590bf	-0.036514994
85	0xbd08bdf7	-0.03338429
86	0x3d1a2c1d	0.037639726
87	0x3b2287cd	0.0024800182
88	0x3cd55f43	0.0260464
89	0xbd25adaf	-0.04044884
90	0xbd216a05	-0.03940775
91	0x3d1237b8	0.03569767
92	0x3a98d3cd	0.0011659801
93	0x3b4f0380	0.003158778
94	0xbca5b5b3	-0.020228243
95	0x3cf3d710	0.029765636
96	0x3c43a6f3	0.011941659
97	0xbd467d85	-0.04845955
98	0x3ccdb567	0.025110913
99	0x3bc70773	0.006073886
100	0xbca1cce7	-0.019751025
101	0x3d13ab3f	0.036051985
102	0x3c9b416a	0.01895209
103	0x3ca9fe53	0.020751154
104	0xbd1acc02	-0.037792213
105	0x3ce164ca	0.02751388
106	0xbd2e1d90	-0.04250866
107	0xbca5a8a3	-0.020222014
108	0x3c7a23e7	0.015267349
109	0xbcd6d910	-0.02622655
110	0x3cef5f73	0.029220318
111	0x3ce5527a	0.02799343
112	0x3c132ca0	0.008982807
113	0x3d141302	0.03615094
114	0xbb037d33	-0.0020063638
115	0xbc820cda	-0.015875269
116	0x3d096fa8	0.03355375
117	0xb8b07ccd	-8.41558e-05
118	0xbcf1dfed	-0.029525721
119	0xbca8fa8a	-0.020627279
120	0x3c7db053	0.0154839335
121	0xbb964cda	-0.004586798
122	0xbc1837cd	-0.009290648
123	0x3c944150	0.01809755
124	0xbd40fa10	-0.04711348
125	0xbc95654a	-0.018236775
126	0xbd43e14a	-0.047822274
127	0x3b197800	0.0023417473
128	0x3c6dc427	0.014512098
129	0x3c0c516d	0.008564335
130	0x3ba814e7	0.005129445
131	0x3c5f91b3	0.013645577
132	0x3c1331a0	0.0089839995
133	0x3c3f0e13	0.01166107
134	0xbc953c80	-0.018217325
135	0x3d31bfd7	0.043395843
136	0xbc847383	-0.016168362
137	0x3cc65cbd	0.024214143
138	0x3d438d55	0.047742207
139	0x3be1e61a	0.0068938853
140	0xbce39dd0	-0.027785212
141	0xbc477060	-0.012172788
142	0xbd3917c3	-0.045188677
143	0xbd0d637a	-0.034518696
144	0x3ba8a1e7	0.0051462534
145	0x3d2c7c32	0.04211063
146	0xbc0b4473	-0.008500206
147	0xbb33ab67	-0.0027415396
148	0x3b70c0cd	0.0036736012
149	0xbcd72127	-0.026260925
150	0xbcc61203	-0.02417851
151	0xbd1a6927	-0.037697937
152	0xbb437c4d	-0.0029828728
153	0x3c6b51ed	0.014362794
154	0x3d1233f7	0.03569409
155	0xbd499e30	-0.049223125
156	0x3cd0807d	0.025451893
157	0xbd29c57b	-0.041448098
158	0x3cc5c5a3	0.024142092
159	0xbd0e43cf	-0.034732636
160	0xbd033df7	-0.032041516
161	0xbd295067	-0.041336443
162	0x3d2d5b8b	0.04232363
163	0xbd2a0d3b	-0.041516524
164	0x3d0b9b8d	0.03408389
165	0x3d304e90	0.043043673
166	0xbd0531ba	-0.032518126
167	0x3d1492f5	0.03627296
168	0x3d3bfa15	0.045892794
169	0xbd453f03	-0.048155796
170	0xbd04c8f5	-0.03241821
171	0x3d1ad453	0.037800144
172	0xbcf93bb3	-0.030423975
173	0x3d0699cb	0.032861512
174	0xbcecf890	-0.028927118
175	0xbbfd4e00	-0.0077302456
176	0xbd037222	-0.032091267
177	0x3bf8a000	0.007587433
178	0xbcf97f5d	-0.03045624
179	0xbce54fe0	-0.027992189
180	0x3c172e9a	0.009227419
181	0xbae47833	-0.0017430842
182	0xbb52c267	-0.003215933
183	0xbcc7a70d	-0.024371648
184	0x3ced935d	0.029000932
185	0x3d3bda08	0.045862228
186	0x3cf445aa	0.029818375
187	0xbd1f9c7f	-0.038967606
188	0xbd282fef	-0.041061338
189	0xbd026587	-0.031835105
190	0x3b29ac4d	0.0025890053
191	0xbb57691a	-0.0032869042
192	0x3be77a40	0.007064134
193	0x3c85acb7	0.016317708
194	0x3cf71dea	0.030165631
195	0x3ccb3b97	0.024808688
196	0x3c5256e0	0.012838095
197	0xbc810e17	-0.015753789
198	0xbb93b667	-0.004507828
199	0xbc84d887	-0.01621653
200	0xbd141c63	-0.036159884
201	0xbbc7a580	-0.006092727
202	0xbd3e92aa	-0.04652659
203	0x3d199c92	0.037502833
204	0x3d10849f	0.035282727
205	0x3b43b31a	0.0029861392
206	0xbd083030	-0.03324908
207	0xbc7500c0	-0.014953792
208	0x3c479a80	0.012182832
209	0x3d23c9e7	0.03998747
210	0x3d2a634a	0.041598596
211	0x3c7f5100	0.015583277
212	0x3cb876f7	0.022517664
213	0xbc4fa7a7	-0.012674249
214	0xbd09a868	-0.03360787
215	0xbccfce67	-0.025366975
216	0xbc91e0ed	-0.017807448
217	0x3bd725b3	0.0065657734
218	0x3a20d4cd	0.00061352254
219	0x3d078710	0.03308779
220	0x3d339bba	0.043849684
221	0xbd108b0f	-0.035288867
222	0x3cac762a	0.021052439
223	0xbc92182a	-0.017833788
224	0x3cc6cd7d	0.024267906
225	0xbd41253b	-0.047154646
226	0xbc7b1233	-0.015324163
227	0x3ce5a3aa	0.028032143
228	0xbc32ecc0	-0.010920703
229	0xbcce3040	-0.025169492
230	0x3d16a31b	0.036776643
231	0xbd00fd63	-0.03149165
232	0xbd09b5f8	-0.033620805
233	0xbb40554d	-0.0029347718
234	0x3cd50c83	0.026006943
235	0xbd05f03d	-0.032699812
236	0x3d0a2645	0.033727903
237	0xbd46408d	-0.048401404
238	0x3d1e0caf	0.038586315
239	0xbd1829e2	-0.037149318
240	0x3b309867	0.0026946308
241	0xbd09a3a0	-0.03360331
242	0xbd2c42eb	-0.042056005
243	0x3d496f50	0.04917842
244	0x3caa4afd	0.02078771
245	0xbd2c06c7	-0.04199865
246	0xbd33c4a3	-0.0438887
247	0xbb2eed33	-0.0026691675
248	0x3d03bb7b	0.032161217
249	0x3ce3c720	0.027804911
250	0x3b103ee7	0.002201015
251	0x3bd48df3	0.006486648
252	0xbd178265	-0.03698959
253	0x3cf9c21a	0.030488063
254	0xbbafe09a	-0.0053673508
255	0xbd24ebeb	-0.04026405

fc1.bias f4 [120]
0	0x3cb437fd	0.021999354
1	0x3d0ddcb3	0.034634303
2	0xbd0d2402	-0.034458168
3	0x3c123d5a	0.00892576
4	0x3d262d18	0.04057035
5	0xbce4117d	-0.02784037
6	0x3d18fc43	0.03734995
7	0xbc274267	-0.010208703
8	0x3cd5e460	0.026109874
9	0x3c916080	0.01774621
10	0xbd084e0a	-0.03327755
11	0x3c3623ad	0.011116904
12	0xbd26eb20	-0.040751576
13	0xba5b8c67	-0.00083751086
14	0x3d33f7d0	0.043937504
15	0xbc1c2eed	-0.009532672
16	0xbd22603a	-0.03964255
17	0xbcaf0987	-0.021366848
18	0xbba952cd	-0.0051673413
19	0xbd26d000	-0.040725708
20	0x3cf1f1d0	0.02953425
21	0x3cf87b33	0.030332183
22	0x3d3ff085	0.046860237
23	0x3d2d5c93	0.042324614
24	0x3c25feed	0.01013158
25	0x3d153893	0.036430907
26	0x3d40309b	0.046921354
27	0xbd2f9352	-0.042865105
28	0x3c67d4b3	0.014149833
29	0xba67ed33	-0.0008847296
30	0xbd07512d	-0.0330364
31	0xbc56a9c7	-0.0131020015
32	0x3abecfcd	0.0014557779
33	0xbbc31667	-0.0059535983
34	0xbc9f483a	-0.01944362
35	0xbc6aa7f3	-0.014322269
36	0xbc084e3a	-0.008319432
37	0x3c9b7743	0.018977767
38	0xbcd8f68d	-0.026484752
39	0x3d0ea1eb	0.034822386
40	0xbd2c0f18	-0.042006582
41	0x3cf5fca7	0.0300277
42	0xbd26e728	-0.04074779
43	0xbb8e431a	-0.004341495
44	0xbc627d20	-0.013823777
45	0xbc499be7	-0.012305236
46	0x3a27f0cd	0.00064064265
47	0xbd1ca497	-0.038242903
48	0x3d3b483a	0.045723177
49	0xbc40c240	-0.011765063
50	0x3c234a13	0.009966391
51	0x3d1e2958	0.038613647
52	0xbb57dd00	-0.0032938123
53	0x3bd22ada	0.0064137997
54	0xbb842540	-0.004032761
55	0xbb414acd	-0.0029494048
56	0xbc0d3b80	-0.008620143
57	0xbd38cdd5	-0.04511817
58	0x3c7af10d	0.01531626
59	0x3b06974d	0.002053696
60	0x3b87a000	0.0041389465
61	0x3b7a6500	0.0038207173
62	0xbbe5365a	-0.0069950046
63	0xbd110f3f	-0.03541493
64	0xbc3029ba	-0.010752136
65	0xbd3e4707	-0.046454456
66	0x3d3730ba	0.044724204
67	0xbca64373	-0.020295834
68	0x3b965b73	0.0045885383
69	0xbc37305a	-0.0111809615
70	0xbd4ba517	-0.04971799
71	0x3ccd17aa	0.025035698
72	0x3b9cd9a7	0.0047866884
73	0x3acc5233	0.0015588462
74	0x3c53a8d3	0.012918669
75	0xb9af0667	-0.0003338337
76	0xbd417818	-0.04723367
77	0xbd3f545b	-0.046711307
78	0x3d412bad	0.047160793
79	0xbcd23243	-0.025658732
80	0xbc7e5253	-0.015522557
81	0x3c3a6da0	0.011378676
82	0xbb4c241a	-0.0031149448
83	0xbcd1d98a	-0.025616426
84	0x3d235e4d	0.039884854
85	0x3d2e7ad2	0.0425976
86	0xbcea6aa3	-0.028615301
87	0xbd0d3bdd	-0.03448092
88	0xbbac7a0d	-0.005263573
89	0xbd402942	-0.046914347
90	0xbd1f07b5	-0.03882571
91	0xbc919503	-0.01777125
92	0xbd3d645d	-0.046238292
93	0xbc6ecc00	-0.014575005
94	0x3d126ccb	0.035748284
95	0xbcb34353	-0.021882689
96	0x3d33ae05	0.04386713
97	0x3d3f95b0	0.046773612
98	0xbd477388	-0.048694164
99	0x3d166a1a	0.03672228
100	0x3b17e64d	0.0023178041
101	0xbcfb6340	-0.030686975
102	0xbc301187	-0.010746366
103	0x3c892c1a	0.016744662
104	0xbd232e9f	-0.039839383
105	0xbd3fe4f2	-0.0468492
106	0xbc83fe73	-0.016112542
107	0xbc79adcd	-0.015239191
108	0xbb0bb3e7	-0.0021316947
109	0xbd3d32e0	-0.046191096
110	0xbcdd8fd0	-0.027046114
111	0x3c9c7dea	0.01910301
112	0xbbb98673	-0.0056617795
113	0xbb92e240	-0.0044825375
114	0xbd17c628	-0.03705421
115	0xbca32fea	-0.019920308
116	0x3cd36f13	0.0258098
117	0x3c1d2c1a	0.009593034
118	0xbca019b0	-0.019543499
119	0x3c827350	0.015924126

fc2.weight f4 [84, 120]
0	0x3cfccca9	0.030859308
1	0x3d8567af	0.06513917
2	0x3d754978	0.05988452
3	0xbd8a345b	-0.06748267
4	0x3cb33509	0.021875875
5	0xbce20aef	-0.027593104
6	0x3daaebc9	0.08345754
7	0x3da5cf27	0.08096152
8	0x3d8c0d17	0.06838434
9	0xbc8dce00	-0.017310143
10	0x3d332b0d	0.04374223
11	0x3d56343f	0.05229592
12	0x3d9a4af6	0.07533829
13	0x3d0055e5	0.031331915
14	0x3d180517	0.03711423
15	0x3db40cb2	0.08791484
16	0x3d55555f	0.05208337
17	0x3d70dda0	0.058805108
18	0xbcf16f74	-0.02947209
19	0x3cb5a9cc	0.022175692
20	0xbd087d38	-0.033322543
21	0xbd93c68a	-0.07215603
22	0xbcc00cb8	-0.023443565
23	0x3ca6ebc9	0.020376103
24	0x3d7fe4d4	0.062474087
25	0xbcb28919	-0.021793889
26	0x3da5a0a4	0.080872804
27	0xbd5ac225	-0.053407807
28	0xbd00fcb8	-0.03149101
29	0xbda88d07	-0.08230024
30	0x3d85f7a9	0.06541378
31	0x3d87c7fc	0.06629941
32	0xbd55b4bb	-0.05217431
33	0x3abd9959	0.0014465257
34	0xbda4ab94	-0.080405384
35	0xbd44ad08	-0.048016578
36	0x3d0b61f5	0.034028966
37	0xbd331461	-0.043720607
38	0xbcda18da	-0.026623178
39	0xbdb859f6	-0.09001534
40	0xbc7a98f6	-0.015295258
41	0x3d1ec091	0.038757864
42	0x3d488f9a	0.048965074
43	0x3cb0e218	0.021592185
44	0xbd9963a6	-0.074897096
45	0x3dad5269	0.08462984
46	0xbdac4c13	-0.084129475
47	0x3cc56dab	0.024100145
48	0x3dae059a	0.08497162
49	0xbce1db9a	-0.027570534
50	0x3cedd9b3	0.029034471
51	0x3db47fc5	0.088134326
52	0xbd983add	-0.07433102
53	0x3d298911	0.041390482
54	0xbd4eb7db	-0.050468307
55	0x3d039f64	0.03213443
56	0xbcdd3a6c	-0.027005397
57	0x3daff7d3	0.085921906
58	0xbdb93685	-0.09043602
59	0xbb8c28aa	-0.0042773085
60	0xbd87655c	-0.0661113
61	0x3d8e49eb	0.069476925
62	0xbd19f2e8	-0.03758517
63	0xbd2b71ae	-0.04185646
64	0x3db3fcaa	0.08788426
65	0xbdb0a1d3	-0.086246155
66	0xbd8be529	-0.06830818
67	0xbda3496f	-0.07972991
68	0xbd972273	-0.073796175
69	0x3beedb04	0.0072892923
70	0xbd3ebe55	-0.046568234
71	0x3daf987b	0.08574005
72	0x3d40651b	0.04697142
73	0xbd473020	-0.04862988
74	0xbd847dfd	-0.06469343
75	0x3d74896a	0.05970136
76	0xba01fd6e	-0.00049587234
77	0xbb8d93ce	-0.004320598
78	0xbd7bb0c5	-0.061447877
79	0xbc43e871	-0.011957274
80	0xbdb04825	-0.086075105
81	0xbc788e41	-0.015170635
82	0x3d87f6e8	0.066388905
83	0x3c30fd4c	0.010802578
84	0x3db59863	0.08866956
85	0xbcf47208	-0.02983953
86	0xbd4a64e9	-0.04941264
87	0xbd04bef4	-0.03240867
88	0x3cb51e38	0.022109136
89	0x3c9c864f	0.019107012
90	0xbc405dbc	-0.011741098
91	0x3ce0e0b3	0.027450895
92	0x3d956e23	0.072963975
93	0xbd51c40b	-0.05121235
94	0x3c990053	0.018676912
95	0x3cc5c28b	0.024140617
96	0x3d7e8e6b	0.06214754
97	0x3d9108c4	0.0708175
98	0x3da88c16	0.08229844
99	0x3b2515b9	0.002518995
100	0x3cadb422	0.021204058
101	0xbd9536a3	-0.07285812
102	0xbcad67e3	-0.021167701
103	0x3d9bb7d6	0.07603423
104	0xbd8115c4	-0.063029796
105	0xbc100cbf	-0.008792101
106	0x3d118d6b	0.035535257
107	0x3d013fab	0.03155486
108	0xbd331e88	-0.04373029
109	0xbc38bc77	-0.011275402
110	0x3da17377	0.07883351
111	0xbd3b45a7	-0.045720723
112	0x3c958d5f	0.018255888
113	0x3d85c0f7	0.06530946
114	0x3cdafaa6	0.026730847
115	0xbca9d22d	-0.020730102
116	0xbd800a23	-0.062519334
117	0xbd915da9	-0.070979424
118	0xbdb5f0e3	-0.08883836
119	0x3c8029d0	0.015644938
120	0x3cba70fa	0.02275895
121	0xbd2b8d5a	-0.04188285
122	0x3d8249df	0.06361746
123	0xbda67d02	-0.08129312
124	0xbd1bc332	-0.03802795
125	0xbd63c68e	-0.05560928
126	0x3cd99424	0.026559897
127	0xbd6ba026	-0.057525776
128	0xbd8bcc05	-0.06826023
129	0x3d849f8d	0.064757444
130	0xbd155544	-0.03645827
131	0xbd264726	-0.040595196
132	0x3dab880d	0.08375559
133	0x3b4c3b39	0.003116323
134	0xbce49b2c	-0.027906023
135	0x3d960bde	0.07326482
136	0xbdb0caae	-0.08632408
137	0x3c22500f	0.009906783
138	0x3d573f86	0.052550815
139	0xbcf4f4ea	-0.02990194
140	0xbda0ab38	-0.078451574
141	0x3d6882aa	0.056765236
142	0xbd943977	-0.07237523
143	0x3d7842f7	0.060610738
144	0xbdb543d9	-0.088508315
145	0x3da3f692	0.08006014
146	0xbcfae862	-0.030628387
147	0xbca9a419	-0.02070813
148	0xbd8f2b50	-0.06990683
149	0x3d4ef9f6	0.05053135
150	0x3d29d80e	0.04146581
151	0xbd09fe99	-0.03369007
152	0xbd6c85f9	-0.057744954
153	0x3c48fb0c	0.0122668855
154	0x3db10411	0.08643354
155	0x3da11833	0.07865944
156	0xbcf89d28	-0.030348375
157	0xbd91c8a2	-0.07118346
158	0x3a5b6147	0.00083686825
159	0x3da5993f	0.0808587
160	0x3c248ce2	0.010043355
161	0xbd03fee9	-0.032225523
162	0x3d8ed4e5	0.069742
163	0x3daec801	0.085342415
164	0x3db6fa41	0.08934451
165	0xbd7a2642	-0.06107164
166	0xbda3bf5a	-0.07995482
167	0x3da73ff3	0.08166494
168	0xbd802d37	-0.06258624
169	0x3d0cd440	0.034382105
170	0xbbd666bb	-0.006543008
171	0xbd0f7194	-0.035020426
172	0x3be137bd	0.0068730996
173	0x3da1f7e4	0.079086095
174	0x3d8a8874	0.067643076
175	0xbd27a937	-0.04093286
176	0x3d8f5093	0.0699779
177	0xbb59b0c3	-0.003321693
178	0x3d93603f	0.07196092
179	0xbbbc1604	-0.005739929
180	0x3d8c71b9	0.068576284
181	0xbd8fd499	-0.07022972
182	0xbcd74668	-0.02627869
183	0xbd90cd10	-0.070703626
184	0xbcde80a2	-0.027160946
185	0x3d734665	0.059393305
186	0xbb09b485	-0.002101214
187	0x3d871ccf	0.06597292
188	0x3d8e521f	0.06949257
189	0x3d7d38c4	0.061821714
190	0xbd628f70	-0.055312574
191	0xbda3b36f	-0.079932086
192	0xbd955cbf	-0.072930805
193	0x3cd4d62f	0.025981037
194	0x3d69046e	0.05688899
195	0xbc66ed91	-0.014094726
196	0xbd0b9fe8	-0.034088045
197	0x3dafd2a4	0.085850984
198	0x3cb48914	0.02203802
199	0x3da83495	0.08213154
200	0xbd1f071c	-0.03882514
201	0x3d9eaf9b	0.07748338
202	0xbd416a7c	-0.047220692
203	0xbc799c99	-0.01523509
204	0x3da2dbc7	0.079520755
205	0x3d9db800	0.07701111
206	0xbd270a29	-0.040781174
207	0xbdb8af5d	-0.09017823
208	0xbd5fc771	-0.05463356
209	0x3bddf2d2	0.006773331
210	0xbd84a080	-0.064759254
211	0xbb0d55d2	-0.0021566045
212	0xbd036c76	-0.03208586
213	0xbd921cc8	-0.07134396
214	0x3d4d956d	0.05019133
215	0xbd5a8c7d	-0.053356636
216	0x3c5ba763	0.013406607
217	0xbb9af211	-0.0047285636
218	0x3d57882d	0.0526201
219	0x3d015bfa	0.031581856
220	0x3d519d4d	0.051175404
221	0xbd126bf4	-0.035747483
222	0x3c11f2c2	0.008907976
223	0xbcb5a40c	-0.02217295
224	0x3d8cc0d4	0.068727165
225	0xbbbdf040	-0.0057964623
226	0x3c78fba9	0.015196719
227	0x3c475cd5	0.012168129
228	0x3d899e7b	0.06719681
229	0xbdaf31fb	-0.08554455
230	0x3d20ce53	0.039259266
231	0xbd479dfd	-0.048734654
232	0xbd6dd90f	-0.05806833
233	0x3d7230de	0.059128635
234	0x3d9d72c2	0.07687904
235	0xbc610eb5	-0.013736417
236	0xbd7f3473	-0.06230588
237	0x3d180557	0.037114467
238	0xbd702233	-0.058626365
239	0x3c779876	0.015112033
240	0x3db8d2a3	0.09024551
241	0x3da6a4ee	0.081369266
242	0x3cfad346	0.030618321
243	0xbca0cca3	-0.019628828
244	0x3da660fb	0.08123966
245	0xbdaf2fe3	-0.085540555
246	0x3da87911	0.082262166
247	0xbd3370a8	-0.04380861
248	0x3da037d9	0.07823152
249	0xbce7f32c	-0.028314196
250	0xbc935fd0	-0.017990023
251	0xbd60fc7f	-0.0549283
252	0xbda245f1	-0.079234965
253	0x3d154ddf	0.036451217
254	0xbcb4961c	-0.022044234
255	0xba475fb5	-0.0007605509

fc2.bias f4 [84]
0	0xbd7a4e2a	-0.0611097
1	0xbdb61625	-0.088909425
2	0x3d6def0a	0.058089294
3	0x3db4f32c	0.08835444
4	0xbd92bc31	-0.07164801
5	0xbd983516	-0.07432
6	0xbd79d850	-0.060997307
7	0xbd678da9	-0.056531582
8	0xbc48049e	-0.012208132
9	0xbd85468e	-0.06507598
10	0xbd8bbd3d	-0.06823204
11	0xbd887020	-0.06662011
12	0xbd1597eb	-0.036521833
13	0x3b2357e1	0.0024924206
14	0xbda48c82	-0.08034612
15	0x399b18c6	0.00029582361
16	0xbbbc0079	-0.005737361
17	0xbc91aca0	-0.01778251
18	0xbd1af26f	-0.03782886
19	0xbcdfead1	-0.027333649
20	0x3cc1b687	0.023646606
21	0x3c10998e	0.008825673
22	0x3cc29a49	0.02375521
23	0xbcc5feb9	-0.024169313
24	0x3d913914	0.07090965
25	0x3d0ca883	0.034340393
26	0xbdad8093	-0.08471789
27	0x3d05c0ae	0.032654457
28	0x3d4d2c9e	0.05009138
29	0xbc61a74b	-0.013772796
30	0xbcc5f8bf	-0.024166463
31	0xbd8d235a	-0.068915084
32	0x3db24bcc	0.08705863
33	0x3d403f47	0.046935346
34	0x3d3fab16	0.04679402
35	0xbd9a4ccf	-0.07534181
36	0x3d9b44fd	0.07581518
37	0x3a975009	0.0011544238
38	0x3bce86ed	0.0063027055
39	0xbd989ffb	-0.07452389
40	0xbaeceb82	-0.0018075558
41	0xbda89ba8	-0.08232814
42	0x3c02b806	0.007978445
43	0xbda298ff	-0.07939338
44	0x3ce41d8a	0.027846117
45	0x3cbcf857	0.023067636
46	0xbdb344b8	-0.087533414
47	0xbca29a4c	-0.019848965
48	0xbce46d5f	-0.027884183
49	0xbca897f2	-0.020580266
50	0x3d4d6ea4	0.050154343
51	0xbbeff45d	-0.0073228315
52	0xbd6b6cb2	-0.057476707
53	0xbd07efeb	-0.033187788
54	0xbd3c441b	-0.045963388
55	0xbd425838	-0.047447413
56	0x3b38e8bd	0.0028214895
57	0x3bb7d239	0.0056097773
58	0xbb98ba43	-0.004660876
59	0xbc4e59f8	-0.012594692
60	0x3d0700c8	0.03295973
61	0x3c911496	0.017710011
62	0xbd226788	-0.039649516
63	0x3cd8b7e4	0.026454873
64	0xbd1d6ad6	-0.038431965
65	0xbd59c397	-0.053165045
66	0xbd875938	-0.06608814
67	0xbd05feb0	-0.032713592
68	0xbd9a6ae3	-0.07539918
69	0xbd0c9078	-0.034317464
70	0xbcaf1b82	-0.021375421
71	0x3b883248	0.0041563846
72	0xbda42cc8	-0.08016354
73	0xbd673dfd	-0.0564556
74	0x3d966cdf	0.07344984
75	0x3d1ac40c	0.03778462
76	0x3d9829e4	0.07429865
77	0x3db4e6c2	0.08833076
78	0x3d86c23a	0.065800145
79	0xbd3b8cde	-0.04578864
80	0x3d7e21d0	0.062043965
81	0x3d02bd31	0.03191871
82	0x3c1c4484	0.00953782
83	0x3c9aa6c1	0.018878343

fc3.weight f4 [10, 84]
0	0xbc2bc073	-0.010482895
1	0x3d9a29f6	0.07527535
2	0xbdbe1f2f	-0.092832915
3	0x3d888009	0.06665046
4	0xbd3eb21d	-0.04655658
5	0x3bd7eed9	0.006589752
6	0xbc1f6f34	-0.009731103
7	0x3d7ae36f	0.061252054
8	0x3d4c19d2	0.04982931
9	0xbd838629	-0.064220734
10	0x3dda78f4	0.10667601
11	0xbd76988e	-0.06020408
12	0xbdb31833	-0.0874485
13	0x3d3e2134	0.046418384
14	0x3dbefbd9	0.0932538
15	0x3dcd31fa	0.10019298
16	0xbd8120c6	-0.06305079
17	0xbd2addf4	-0.041715577
18	0xbdcafabc	-0.09911105
19	0x3dda0d16	0.10647027
20	0x3d795153	0.060868572
21	0x3ce7705e	0.028251823
22	0xbd6d431c	-0.05792533
23	0xbdd7fa11	-0.10545743
24	0xbcc16011	-0.023605378
25	0xbcb0d0bf	-0.021583913
26	0xbd0aa22e	-0.033846073
27	0xbd483d8d	-0.048886824
28	0x3c9af565	0.018915841
29	0x3d97945d	0.07401345
30	0xbc3310d1	-0.010929302
31	0xbd86b999	-0.06578369
32	0x3c4c558f	0.012471571
33	0xba9fed2b	-0.0012201419
34	0x3d3d0948	0.04615143
35	0xbdda0dd1	-0.106471665
36	0x3d98f0af	0.07467782
37	0xbd3cefa8	-0.04612699
38	0x3d776865	0.060402293
39	0xbc847968	-0.016171172
40	0x3dadfb0e	0.084951505
41	0x3d89a687	0.06721216
42	0x3dd7c451	0.10535491
43	0x3d345c2a	0.044033207
44	0xbddbe715	-0.10737435
45	0xbd1da56c	-0.038487837
46	0x3c22f1ef	0.009945377
47	0xbd9ca496	-0.0764858
48	0x3d750fb9	0.059829447
49	0xbd26c78f	-0.040717658
50	0x3d2bc878	0.04193923
51	0xbd432e7c	-0.047651753
52	0x3bff9f13	0.0078009455
53	0xbca54a1d	-0.020176942
54	0x3dcf5f0a	0.10125549
55	0xbd1a55b3	-0.037679385
56	0x3d639ca7	0.055569317
57	0xbdc125c3	-0.094310306
58	0xbdcb6df0	-0.09933078
59	0xbd4f04c8	-0.05054167
60	0x3d92d692	0.07169832
61	0x3dcc4fa3	0.09976127
62	0x3d7d4138	0.061829776
63	0xbd1c5c25	-0.038173813
64	0x3bb7ac9c	0.0056052934
65	0x3c31e0d6	0.010856828
66	0xbd49d472	-0.04927487
67	0x3c90852e	0.01764163
68	0xbd8c3522	-0.06846072
69	0x3bfa044a	0.007629906
70	0xbda6083c	-0.08107039
71	0xbd557d0a	-0.0521212
72	0xbb1f7606	-0.0024331822
73	0xbda13797	-0.07871931
74	0x3da892a9	0.08231098
75	0xbd78e236	-0.060762607
76	0xbdd33588	-0.10312945
77	0xbdada4bf	-0.084786884
78	0xbc5dcc84	-0.01353753
79	0xbd86c920	-0.0658133
80	0xbd2653b3	-0.040607166
81	0x3c451b58	0.012030445
82	0x3d726166	0.059174918
83	0xbd9778d8	-0.07396096
84	0xbcb9899b	-0.022648623
85	0xbdb0be1a	-0.08630009
86	0x3db00a65	0.085957326
87	0xbce74bc3	-0.028234368
88	0x3d7023f0	0.058628023
89	0xbdd2176c	-0.102583736
90	0xbcdde8b8	-0.027088508
91	0x3ddc593b	0.10759207
92	0x3dae11e3	0.08499505
93	0x3d93f7ff	0.07225036
94	0x3bb9e336	0.0056728376
95	0x3d6c13d4	0.057636097
96	0xbdbe36b0	-0.092877746
97	0x3d1633f1	0.03667063
98	0x3d82a3fc	0.06378934
99	0xbcaacda8	-0.020850018
100	0x3dd172b9	0.1022696
101	0x3c0b4e34	0.008502532
102	0xbd00cf74	-0.031447843
103	0xbd9d1268	-0.07669526
104	0xbc650921	-0.013979227
105	0x3d95b47f	0.073098175
106	0x3c31c6a7	0.010850585
107	0xbd918fa3	-0.07107475
108	0xbcb9e218	-0.022690818
109	0x3ddc4e2d	0.10757098
110	0xbd9e7848	-0.077377856
111	0xbdc9c6fa	-0.09852405
112	0xbd70bbfe	-0.058773033
113	0xbd319864	-0.04335822
114	0xbd29d6f6	-0.04146477
115	0x3c50d375	0.012745728
116	0x3dc0558a	0.09391315
117	0xbbaa6a73	-0.005200678
118	0x3cb1c684	0.021701105
119	0xbc620af7	-0.01379656
120	0x3d446817	0.04795083
121	0xbcad5831	-0.021160217
122	0xbcff307e	-0.031151053
123	0x3cc517e8	0.024059251
124	0x3d6e472c	0.058173344
125	0x3d87e95b	0.06636306
126	0x3db9c8f7	0.09071534
127	0x3c9c0c0f	0.019048719
128	0xbd8ccb8e	-0.068747625
129	0x3d139f70	0.036040723
130	0xbda9cd82	-0.08291151
131	0x3c17ff78	0.009277217
132	0xbd1bd89d	-0.038048375
133	0xbd418add	-0.04725157
134	0xbdd06b0d	-0.10176668
135	0xbcccceb2	-0.025000904
136	0xbdc64b99	-0.09682388
137	0xbd8034ca	-0.06260069
138	0xbd88ebcd	-0.066856004
139	0x3d828d34	0.063745886
140	0xbd0ece70	-0.034864843
141	0xbd176086	-0.036957286
142	0xbd2331fb	-0.039842587
143	0x3d906211	0.07049955
144	0x3cedae76	0.029013854
145	0x3d69bb63	0.05706347
146	0x3dbdc466	0.09265976
147	0xbcb099ad	-0.021557653
148	0xbd829fe0	-0.0637815
149	0x3dd38386	0.103278205
150	0xbddcb52b	-0.107767425
151	0x3d630c5b	0.055431705
152	0x3dcd338f	0.100196
153	0x3db85fe9	0.090026684
154	0xbd050c0d	-0.032482196
155	0xbb5240f9	-0.0032082184
156	0x3d8de65f	0.069287054
157	0x3ddb8059	0.1071784
158	0xbd728ff3	-0.059219312
159	0x3bbf0e98	0.005830597
160	0x3dcb0f46	0.099150226
161	0x3c56f322	0.013119491
162	0x3dbab5f8	0.09116739
163	0xbdc054f8	-0.093912065
164	0x3c4a19e1	0.012335272
165	0xbcf5336a	-0.029931743
166	0x3c407a41	0.011747898
167	0x3c8239e9	0.015896754
168	0xbd066e8f	-0.03282028
169	0x3db71420	0.089393854
170	0x3cab1c06	0.020887386
171	0xbda8a375	-0.08234302
172	0x3d8f8489	0.07007701
173	0x3d5c424e	0.05377417
174	0x3d5ce497	0.053928938
175	0x3b5477af	0.003241997
176	0xbd424d02	-0.04743672
177	0xbba1ce03	-0.0049378886
178	0x3d5326b0	0.051550567
179	0x3c857e1f	0.01629549
180	0x3da472d7	0.080297165
181	0xbd632af9	-0.055460904
182	0x3d9efd5b	0.077631675
183	0xbd74a929	-0.059731636
184	0x3d8f8b21	0.070089586
185	0x3c6d2509	0.014474162
186	0x3c27ad7a	0.010234231
187	0x3db26cc3	0.08712151
188	0xbd867442	-0.06565143
189	0x3c664e00	0.014056683
190	0xbd739bdd	-0.059474815
191	0xbdc51cbf	-0.096246235
192	0x3dcf7753	0.10130181
193	0x3c9548b1	0.018223139
194	0x3d623345	0.055224676
195	0xbc317bcd	-0.010832739
196	0x3d8602a1	0.0654347
197	0xbda30d44	-0.079615146
198	0x3d3f9c96	0.04678019
199	0x3cc8a736	0.024493795
200	0xbd8dd261	-0.06924892
201	0x3da82bbd	0.082114674
202	0xbdb33e5b	-0.08752128
203	0xbd3f3aef	-0.046687063
204	0xbda43900	-0.080186844
205	0xbd651a3f	-0.055933233
206	0x3c6f9dfa	0.014625067
207	0xbd88bf3d	-0.06677101
208	0xbcc9ba31	-0.024624916
209	0x3dc2cfa6	0.09512262
210	0xbd876e56	-0.06612842
211	0xbd616c91	-0.055035178
212	0xbd9d9546	-0.07694487
213	0x3d8d0e54	0.068874985
214	0xbdb6fc90	-0.08934891
215	0xbdbe88f2	-0.09303464
216	0xbd9fcf6a	-0.07803233
217	0x3db7f6a0	0.08982587
218	0xbd1bc1a2	-0.03802646
219	0x3ab39009	0.0013699542
220	0xbd144842	-0.036201723
221	0xbddc8336	-0.10767214
222	0x3dc8cd77	0.09804814
223	0xbd3d0acf	-0.046152886
224	0x3dd6139c	0.10452959
225	0xbd4ba417	-0.049717035
226	0x3dc73936	0.09727709
227	0xbd1bce89	-0.038038764
228	0x3c666c8d	0.014063966
229	0x3d7f0024	0.062255993
230	0x3d392027	0.04519668
231	0xbdcfd25d	-0.101475455
232	0x3d3c9401	0.046039585
233	0xbd8d324d	-0.0689436
234	0x3d58320f	0.052782115
235	0xbc8c7102	-0.01714373
236	0x3c816d0f	0.015799074
237	0xbdca6c9b	-0.09883996
238	0x3d0627fe	0.032752983
239	0x3da9504d	0.08267269
240	0xbd995a02	-0.07487871
241	0x3d4e492e	0.05036276
242	0x3d77117d	0.060319412
243	0xbcf1209b	-0.029434493
244	0x3c6b4fd0	0.0143622905
245	0x3daa0f6b	0.08303722
246	0xbd859295	-0.06522099
247	0x3c53124c	0.01288278
248	0xbda6e032	-0.081482306
249	0xbdd1e27c	-0.102482766
250	0x3d535aa3	0.05160011
251	0xbcac559a	-0.021036912
252	0x3d578404	0.052616134
253	0x3dafa90b	0.08577164
254	0xbc640a08	-0.013918407
255	0xbc5b423a	-0.013382489

fc3.bias f4 [10]
0	0xbdce9542	-0.100870624
1	0x3d6a4204	0.057191864
2	0xbcdb898e	-0.02679899
3	0x3dce1dab	0.100642525
4	0x3d3d9e84	0.04629375
5	0x3d85a708	0.06525999
6	0x3d3df88f	0.046379622
7	0x3cdbc94d	0.026829386
8	0x3d335963	0.043786418
9	0x3bb492a0	0.005510643
