flower_code/model/simplecnn.pth (torch, 252133 bytes, 10 tensors)

conv1.weight f4 [6, 3, 5, 5]
000000 d4 cc b4 3d 51 48 c4 3d 04 9b dd bc 53 3c d9 3d
       0.0882813 0.09584106 -0.027051456 0.10607209
000010 bd 41 cf bc 48 e1 be 3c fb 43 66 bd d6 e1 8a 3d
       -0.025299901 0.023300782 -0.056217175 0.06781356
000020 39 78 d0 3d 87 7d ad bd c2 8c cd 3d 2b 0a b1 3c
       0.10179181 -0.08471208 0.10036613 0.021611294
000030 2a b7 ae 3d a2 1b 80 3c ea 0e 64 3d 91 8e 85 bc
       0.085310295 0.015638176 0.055678286 -0.016303333
000040 17 4d b6 3d 26 d1 8b 3c 91 cc 5c bd bb 1d f1 3c
       0.089014225 0.017067503 -0.053906027 0.029433122
000050 97 e9 59 bd 2e dd 5d bc 4c 19 40 bd 30 e0 9c 3d
       -0.053201284 -0.013541503 -0.046899125 0.07659948
000060 20 ac ba bd ba 0a 5a bd b0 8d 05 bd c6 30 8e bd
       -0.091148615 -0.053232886 -0.032605827 -0.069428965
000070 4d 8f 32 3c a9 91 e9 bd d4 91 d5 3d 6f e2 c8 bd
       0.010898423 -0.114047356 0.10428205 -0.09808814
000080 33 92 b6 3d c5 6b 9d 3c f1 92 19 bd 6c 22 92 3d
       0.08914604 0.019216428 -0.03749365 0.07135472
000090 8d 6c 93 3c c0 11 bf 3d 54 d1 4e 3c 1c 29 15 bd
       0.017996097 0.093295574 0.01262315 -0.036416158
0000a0 f8 27 fe 3c 2b 42 00 bd 10 0d 47 3d 10 23 d3 3d
       0.031024918 -0.031313103 0.04859644 0.10309422
0000b0 79 b3 88 3d 78 c4 4e bd 5a 83 88 3d 76 40 a9 3c
       0.06674857 -0.050480336 0.06665678 0.02066062
0000c0 39 30 70 3d 2b 23 90 bd a0 18 ea bd 32 bc 36 bd
       0.05863974 -0.07037958 -0.11430478 -0.04461307
0000d0 3a 63 b5 bd 11 0b c2 3d 95 3a 08 3d 9d e8 43 3d
       -0.088568166 0.09474767 0.033258993 0.04782926
0000e0 a0 94 15 3d a1 a4 03 bb c3 12 b9 3d 2f 06 a8 bd
       0.036518693 -0.002008714 0.09036782 -0.082043044
0000f0 be 3c ee 3b af 68 a1 bd fd d6 11 3d 82 e1 22 bd
       0.0072704246 -0.07881295 0.03560542 -0.039765842
000100 9d ec 10 3d 9c 13 c5 bc 05 23 c4 3d ea 29 8c bd
       0.035381902 -0.024057202 0.09576992 -0.06843932
000110 ac 09 8d bd da 0b 8d bd e0 b3 d4 3d c1 9d 1d 3d
       -0.068866104 -0.06887026 0.10385871 0.038480524
000120 3d 8e e3 3d dd 29 c3 bd bf 8f ea bd f6 03 b9 bd
       0.11111114 -0.09529469 -0.11453199 -0.090339586
000130 4d 14 9f bd e8 91 3f 3d 83 5b 29 3d cd 7f c4 3d
       -0.07767544 0.046770006 0.041347038 0.095946886
000140 55 40 74 bd 89 36 a1 bd f0 f1 7a 3d ba 2c 3f bd
       -0.059631664 -0.0787173 0.061265886 -0.046673514
000150 e7 86 8f 3d 4e 78 e0 bc 69 47 87 3d 4e bd b7 bd
       0.070081525 -0.027401116 0.06605417 -0.08971654
000160 8d ae 6e bd 2c 32 10 3d 15 fa c7 3c 5d 2c f1 bc
       -0.058271933 0.035204098 0.02441124 -0.0294401
000170 c9 f5 8c 3d 5a c3 a0 3d ad 7d ab bd 4b 80 7c bd
       0.06882817 0.0784976 -0.0837358 -0.061645787
000180 c6 89 d8 3d 08 98 1f bd 89 ac 27 bd c1 d1 e4 bd
       0.10573153 -0.038963348 -0.040936027 -0.1117282
000190 34 6d 87 bd 05 4c ec 3c 79 b6 79 bc d2 a8 ab bd
       -0.06612626 0.028844843 -0.015241259 -0.08381809
0001a0 da 81 31 3b 75 89 a1 bd 90 a1 c8 bd e0 38 82 bd
       0.0027085454 -0.07887546 -0.097964406 -0.06358504
0001b0 f5 f8 ce bd d8 93 96 bd e2 63 ec 3d a1 a9 b2 3c
       -0.101060785 -0.07352418 0.11542489 0.021809401
0001c0 b5 bf 11 3d 4d 90 dc bd cd 50 9b bd e4 6d 1d bd
       0.035583217 -0.10769711 -0.07583771 -0.038434878
0001d0 8e ea 93 3c 0d 16 d0 bd bb c9 4b bd 22 93 8d bd
       0.01805618 -0.10160456 -0.049752932 -0.06912829
0001e0 51 c5 a7 39 ee fd 2f bd 15 19 03 bc 68 3f a0 bd
       0.00031999734 -0.042966776 -0.0080015855 -0.07824594
0001f0 10 52 a2 bd e4 f6 89 bd 13 e5 21 bd b8 a6 ba bd
       -0.079258084 -0.06736544 -0.039525103 -0.0911383
000200 99 48 c6 3d b4 bb bb bc 0b 78 cb 3d 16 5e 13 3d
       0.09681816 -0.022916652 0.09935006 0.0359784
000210 b8 40 c8 bd 82 a7 a3 3d 4b 22 02 bd c8 4c 35 bd
       -0.09777969 0.07990934 -0.031770986 -0.044262677
000220 1b 4c c4 bd 0d 1a eb bd 07 52 07 3d fc a1 ce bc
       -0.095848285 -0.11479578 0.03303721 -0.025223725
000230 e7 22 38 3d 9b 12 c2 bd 56 92 af 3d 4b 97 ad bd
       0.04495516 -0.09476205 0.08572833 -0.084761225
000240 46 56 a3 bc 85 93 c5 3c 51 2b 74 3d 37 ea be 3d
       -0.0199386 0.024118194 0.059611622 0.09322017
000250 13 6d d7 3d 29 83 bb bd 4e 0f ee 3c 46 6f 4b bd
       0.10518851 -0.09155876 0.029060032 -0.049666665
000260 bb 51 4f bc 43 01 b1 bd fc 66 d7 3d 0b 91 ad bd
       -0.012653763 -0.08642819 0.105176896 -0.084749304
000270 e4 c6 7c 3d 00 38 26 3d 62 b1 19 3d f8 b4 7f bd
       0.061713114 0.04058075 0.03752268 -0.062428445
000280 87 f3 d6 3d 60 de cf 3c 80 5e 73 3c c8 66 d0 bd
       0.10495668 0.025374591 0.0148540735 -0.10175854
000290 9f 8b 46 3d ba e8 8d bc 49 ad 58 bd 40 20 cb 3d
       0.048472997 -0.017322887 -0.052899633 0.099182606
0002a0 e4 e4 d2 3c 1d d7 82 bd dc 62 6f bd c4 b1 b4 bb
       0.02574391 -0.06388686 -0.05844389 -0.0055143554
0002b0 f3 0a 84 3d 9f b7 f1 bc 5b ee 86 bd af f6 21 bd
       0.06447401 -0.029506503 -0.065884314 -0.039541896
0002c0 96 ab b0 bd bf ac 28 3d 0e 0c b7 3d 63 a2 de bd
       -0.086264774 0.04118037 0.08937846 -0.108708166
0002d0 6c b1 db 3c 7b 54 74 3d 67 86 ab 3c 42 6f 28 bd
       0.026818 0.05965088 0.020938111 -0.04112173
0002e0 4c dc 76 3d ad 8c 78 3d c8 da 30 3d 63 38 a6 bc
       0.060268685 0.060681034 0.043177396 -0.02029056
0002f0 d0 7b fa bc a0 64 4a 3c 3f 1a a7 bc b5 f1 0c bd
       -0.030576617 0.012353092 -0.020398257 -0.034410197
000300 4e 29 97 3d ac 3b cb 3d 0d 4a 3b bc 79 ca d3 bc
       0.07380925 0.09923491 -0.011431229 -0.025853382
000310 4b da dc 3a 5f eb e1 bb 93 69 e3 3c 71 8a 04 3d
       0.0016849724 -0.0068945135 0.027760303 0.03235859
000320 78 c9 d6 bd c4 8a 2e bd 26 26 c7 3d fa 3e 38 3d
       -0.10487646 -0.042612806 0.09724073 0.044981934
000330 74 31 bc bb a6 93 8e bd 69 ae 90 bd 55 d5 d3 bd
       -0.0057432 -0.069617555 -0.07064516 -0.10343424
000340 3f 2b 1a bd ed b8 1f 3d 56 c9 96 3d e9 5d 5a 3d
       -0.0376389 0.03899472 0.073626205 0.053312216
000350 96 09 d1 bd 38 36 8e bd 9a 48 95 bc eb c2 e4 3d
       -0.102069065 -0.06943935 -0.018223096 0.1116999
000360 01 d6 88 3c e7 f7 f4 bc 48 ac 43 3d ce 24 34 bd
       0.016703608 -0.029903365 0.047771722 -0.043980412
000370 93 10 99 bd 0e 9b ac 3d e5 0e 57 bd ae a0 bd bc
       -0.074738644 0.08428012 -0.05250444 -0.023147907
000380 04 41 eb bd 5a 45 9e 3d df 2a b3 3d 11 5f 2c 3d
       -0.1148701 0.077280715 0.087484114 0.04208285
000390 ad e4 a4 bd e9 64 e9 bd f6 10 c0 bd 5e 58 b0 3d
       -0.08051429 -0.113962 -0.09378235 0.08610605
0003a0 c9 12 63 3d 50 00 c7 3d b5 c5 77 3d 5b 68 ef 3c
       0.055437837 0.097168565 0.060491282 0.029224565
0003b0 13 36 94 ba b4 d8 b3 bd 9d 9c ca bd 99 31 dd bd
       -0.0011307619 -0.08781567 -0.09893153 -0.108004756
0003c0 30 9d 41 3d f9 35 68 bd f9 5e be bc d6 18 88 bd
       0.047269046 -0.056692097 -0.023238646 -0.06645362
0003d0 f0 5e ac bc db 71 a6 bd 80 85 9a bd 41 e3 1c 3d
       -0.021041363 -0.08127185 -0.07544994 0.038302664
0003e0 47 90 0c bd b0 fd 91 3d 3f bb 17 bd d7 79 ad bd
       -0.03431728 0.07128465 -0.037043806 -0.08470505
0003f0 24 e6 a6 bc cb 44 65 bd 24 b3 10 bd 66 21 e1 bd
       -0.020373411 -0.05597381 -0.03532709 -0.10992698

conv1.bias f4 [6]
000000 42 3f 12 bc a8 33 e9 bd a2 95 c1 bd 0f b3 b6 3c
       -0.008926215 -0.11386806 -0.09452368 0.022302179
000010 79 a6 fb 3c f6 84 c8 3c
       0.030719029 0.024477463

conv2.weight f4 [16, 6, 5, 5]
000000 3d 0b b6 bc a6 45 9a 3d bb 44 3f 3c a0 58 45 bd
       -0.022222156 0.07532816 0.011674101 -0.048180223
000010 52 78 97 bb 7c a0 a0 3c 1a 3c ea 3c 58 79 6c bd
       -0.0046224976 0.019607775 0.028593112 -0.05773291
000020 e1 af fa 3c 95 db 2a bd d8 f2 8a bd 07 ac 36 bd
       0.030601444 -0.041713316 -0.067846 -0.04459765
000030 60 44 a1 3d b3 f2 8e 3d d8 bd 95 3d 7b 51 44 3d
       0.078743696 0.06979885 0.073116004 0.04792927
000040 79 a6 7c 3d a7 0e 33 bc 3e 04 38 bd 89 1a 27 3d
       0.0616822 -0.010928786 -0.04492592 0.04079679
000050 ac 4c 2d bd 3b b3 61 bd 20 98 d5 bc 91 5e 8c 3c
       -0.042309448 -0.055102568 -0.026073515 0.017134937
000060 c3 2a 2c 3d fa e5 01 bd 9e d6 44 bd f3 73 34 3c
       0.04203297 -0.031713463 -0.048056237 0.011013973
000070 d7 20 45 bd 31 bd 59 bd 70 53 2e 3d 99 b8 60 bc
       -0.04812702 -0.053158943 0.04256004 -0.0137158865
000080 40 cd 98 3d d1 aa a2 3d 5d 10 c8 3c b9 32 e6 3c
       0.07461023 0.07942737 0.024421865 0.028100358
000090 e3 07 9a 3c 3e 9a a7 3a 6b 98 c2 bb dd 16 93 3a
       0.018802589 0.0012787057 -0.00593858 0.0011222024
0000a0 2d c6 f9 3c 92 79 9b 3d 44 58 ad bc 2f 5f 0d bd
       0.030490005 0.07591547 -0.021160252 -0.034514602
0000b0 50 fa a1 bc 1b 93 21 bd 0c 78 63 3c d5 a3 79 3d
       -0.019772679 -0.03944693 0.013883602 0.060947258
0000c0 d7 c2 82 3d 6f 8c 19 3d 6c 1f 76 bd 73 7e 33 bd
       0.06384819 0.037487444 -0.06008856 -0.043821763
0000d0 92 f5 92 bc 4b 94 76 bc b2 0d dc 3b 77 80 99 bd
       -0.017939363 -0.015050004 0.0067155 -0.07495206
0000e0 fb 2e d0 3c f6 21 7f bd fd 9c 53 bd c5 05 8b bd
       0.025413027 -0.062288247 -0.051663388 -0.0678821
0000f0 66 b3 91 3d 8a 58 9e bd c5 49 7c 3d 3f e2 33 bb
       0.07114296 -0.07731731 0.06159379 -0.0027448086
000100 18 94 1b bc e4 2e 51 3d 2b 4a f7 bb 59 be 51 3d
       -0.0094957575 0.05107011 -0.0075466833 0.05120692
000110 8f cd 71 3d 48 2e 91 bd 9e af 00 3d ea 89 7c 3c
       0.059033927 -0.070889056 0.03141748 0.015413741
000120 d5 d0 8f 3c be 4c 43 3c 2f f5 b6 3c f5 e2 20 bd
       0.017555634 0.011920152 0.02233371 -0.039278943
000130 2b 27 2b bc ad e0 9e 3d fb b0 60 3d 4b 07 49 bb
       -0.01044635 0.07757697 0.05485628 -0.0030674513
000140 30 46 9d bd a6 85 6a 3b 25 be 63 bd 0d fb 87 3d
       -0.07679403 0.0035785227 -0.055601258 0.06639681
000150 51 08 4b bd d5 2c c1 bb a1 73 94 bc b2 0e 6e 3c
       -0.049568478 -0.005895237 -0.018121542 0.014529871
000160 74 5b 9d 3d 3b 39 fe 3b a3 b1 41 3d 72 cc 81 3d
       0.07683459 0.0077582872 0.04728855 0.06337823
000170 54 ff 86 3d 22 ff e6 bc 1f 99 95 bc 86 2d 21 3d
       0.06591669 -0.028197829 -0.01826149 0.039350055
000180 9c 83 b6 bc d5 9a 1c 3d 9c 20 92 bc 2b d5 62 bd
       -0.022279553 0.038233597 -0.017837815 -0.055379074
000190 5f 21 08 3d d6 19 4d 3c b2 1b 15 3d 17 21 a6 3d
       0.03323495 0.012518367 0.036403365 0.0811178
0001a0 c7 54 64 3d 1e 85 9e 3d 3a 33 8f 3b ed d7 8f bd
       0.055744912 0.07740234 0.0043701204 -0.070236064
0001b0 de 9d 6a bd 55 be 4f bd 6d 5c 93 bd bf a2 27 bd
       -0.05727946 -0.050718624 -0.07195363 -0.04092669
0001c0 9b ef 99 bd 42 47 9a bd 28 d8 47 bd 84 d9 a4 bd
       -0.07516404 -0.075331226 -0.048790127 -0.080493
0001d0 17 48 4d bd 27 0c ff 3c 15 78 8b 3d 14 f7 c6 bc
       -0.05011758 0.031133724 0.06810013 -0.024287738
0001e0 ae 8f c2 bc e1 92 32 3d 61 00 25 bd f9 21 1e bd
       -0.023750152 0.043597106 -0.040283564 -0.038606618
0001f0 78 0e 4e 3d a0 b2 91 bd a4 92 23 3c c3 b7 93 3d
       0.050306767 -0.07114148 0.009983692 0.07212784
000200 de 67 65 3c 6a e5 b5 3c ed c5 42 bd 91 a6 93 ba
       0.014001815 0.02220412 -0.047552038 -0.0011264851
000210 56 1c 93 3b 24 2a a4 3c b4 f1 01 3d 02 4d 91 3d
       0.004489462 0.020039625 0.031724647 0.07094766
000220 8d 46 7f bd c7 65 20 3b cc 18 27 bd d0 47 84 bd
       -0.06232314 0.0024474727 -0.040795133 -0.0645901
000230 58 3f d6 bb 20 31 93 bd 41 67 69 3d 58 ee 1a 3c
       -0.006538313 -0.07187104 0.056983236 0.00945624
000240 5e 3f 34 bd 11 c5 2e 3d a1 42 9e bd 27 5c 01 bd
       -0.044005744 0.042668406 -0.07727552 -0.031582024
000250 27 4f 82 bc 0f 18 8e bd 23 aa 54 bd 6b 58 5a bc
       -0.015906883 -0.069381826 -0.051920068 -0.013326745
000260 4c c2 7d 3d ab 79 a1 3d 2a ca 54 3d 4b b3 47 bd
       0.061952874 0.078845344 0.05195061 -0.04875497
000270 b8 cb 5a bd 32 ee 91 3d a8 97 ec 3c de 29 0e 3b
       -0.053416938 0.0712551 0.02888091 0.0021692435
000280 4f 0a 35 3c 9a 64 86 bd c9 53 df bc b2 f7 a0 3d
       0.011049821 -0.06562157 -0.027261632 0.07859744
000290 44 f7 a4 bc c0 36 86 bb c3 d8 8a bd 21 16 3b bd
       -0.020137437 -0.004095882 -0.06779625 -0.0456754
0002a0 bc 87 da ba 1c bd 4f bd c4 e4 25 bc 2a 1a 08 3d
       -0.0016672532 -0.050717458 -0.010125343 0.033228077
0002b0 c1 91 a3 bd e6 a9 c6 3c ea 21 5d bd eb 38 23 bd
       -0.07986785 0.024250936 -0.05398742 -0.039849203
0002c0 c4 64 00 3d 75 f5 84 3d 1e cf b6 bc 3b 4f 09 bd
       0.031346098 0.0649213 -0.022315558 -0.033522826
0002d0 79 34 97 bd 7b 74 2c bd 36 6c 92 bd e6 15 99 bc
       -0.07383055 -0.042103272 -0.07149546 -0.0186872
0002e0 c5 7c 88 3c b7 a9 9c bd 30 00 92 3d 9e d2 51 3d
       0.016661057 -0.07649558 0.07128942 0.05122625
0002f0 a7 b2 a3 bd f8 bc 1f bd 20 28 da 3c 35 6d 89 bc
       -0.079930596 -0.038998574 0.026630461 -0.016775707
000300 78 c8 11 bc e9 00 17 bd 2c 50 86 3d 1f f3 3a bd
       -0.008897893 -0.036866102 0.0655826 -0.045642015
000310 a1 ab 8a 3d 0b a1 ac 3b 50 75 86 3c d6 73 82 3d
       0.06771017 0.0052682213 0.01641336 0.0636975
000320 34 6a 5c bc d4 68 3e bd 11 5c 58 bc 86 9f 87 3d
       -0.013453055 -0.04648669 -0.013205544 0.066222236
000330 e5 25 78 bd 42 d2 97 3c 46 57 a4 bd 96 58 2f 3d
       -0.060583014 0.018532876 -0.080244586 0.04280909
000340 9b 20 f7 3c 33 d7 62 3b bf 89 0f 3d 55 97 c0 38
       0.030166915 0.0034613132 0.035043474 9.183461e-05
000350 c9 0f 39 3d a4 5f 84 bd 9e 73 44 bc 74 5c 14 3d
       0.04518107 -0.064635545 -0.011990456 0.036220983
000360 dd 84 a6 3d fe 5b 2a 3d ac 31 73 bd 73 9b 80 3d
       0.081308104 0.041591637 -0.059373543 0.062796496
000370 62 28 95 bc 74 d0 8e bc 8c fc 97 bd a8 94 52 bc
       -0.018207733 -0.017433383 -0.07421216 -0.012852825
000380 66 8e 6c 3d c4 8a 3a 3c 4e cb 42 bd 34 e3 cd 3c
       0.05775299 0.011385623 -0.047557168 0.025132753
000390 80 78 d6 bc 64 ab 98 3d 59 23 91 bd eb 47 d3 bc
       -0.026180506 0.07454565 -0.0708682 -0.02579113
0003a0 36 76 a1 bd 1e b6 03 bd 68 dc d2 3c 8c f7 a0 3d
       -0.07883875 -0.032156102 0.025739864 0.07859716
0003b0 7e ab 60 3c 20 ef a3 3d db dd 82 3c 40 26 41 3d
       0.013712762 0.08004594 0.01597493 0.04715562
0003c0 81 0d 86 3d 27 c8 8b 3d 3d 31 3b bd 30 bd 99 3d
       0.065455444 0.068252854 -0.045701254 0.07506788
0003d0 24 97 4a 3d 30 60 1c bd 2f 98 1f bd ff 40 8c bd
       0.049460545 -0.03817767 -0.038963493 -0.068483345
0003e0 ac fa a7 3c f1 89 87 bd 42 46 0d 3d 97 3a d3 3c
       0.020505272 -0.06618107 0.03449083 0.025784774
0003f0 a1 47 91 bd cd 44 b6 3c 7b 99 d9 bb da c6 18 3d
       -0.0709374 0.022249604 -0.0066406108 0.037299015

conv2.bias f4 [16]
000000 ac 71 99 3c 54 6b 81 bd 34 4d 51 bd e7 dc ba 3a
       0.01873096 -0.06319299 -0.051099017 0.0014256508
000010 b4 af 67 bc db f6 8b bd f0 bc a4 3d 28 44 28 3c
       -0.014141012 -0.06834193 0.080438495 0.010270156
000020 60 a2 6d bd ed ad 12 3d 06 50 11 3d 35 10 24 bd
       -0.05801618 0.0358104 0.035476707 -0.04005452
000030 96 b3 27 3d 3f 77 4f bd 95 c0 e7 3c 7a d7 9e 3d
       0.04094275 -0.05065083 0.028290072 0.07755943

fc1.weight f4 [120, 400]
000000 00 8a 05 ba b3 29 67 3c b3 c2 46 bc e0 5a 6c bc
       -0.0005094111 0.014109063 -0.012131381 -0.014425963
000010 3d 1b e0 3c 13 bd bb 3c 75 05 35 3d f3 d0 b4 3b
       0.027356738 0.022917306 0.044194657 0.0055180728
000020 40 a9 54 bc c7 86 2e bc 53 f0 26 bc da 71 81 bc
       -0.0129798055 -0.010652251 -0.010189134 -0.015801359
000030 0d ca 8b bc d3 cf 66 bc cd 0d 77 3c 63 11 a2 3c
       -0.017064119 -0.014087635 0.015078974 0.019783681
000040 ea e0 1b 3d 1b 4c 47 bd a3 d0 1e 3d ad 0b 25 bc
       0.03805629 -0.048656564 0.03877319 -0.0100735845
000050 a2 20 48 bd 15 e3 05 3d b3 39 e8 bc ad 93 b8 bc
       -0.048859246 0.032687265 -0.028347826 -0.022531355
000060 d7 f0 87 3c d3 2f 06 3c 4a 9b 0b 3d 97 e6 0e bd
       0.016594334 0.008190113 0.034083642 -0.034887876
000070 40 85 de 3c 67 7e d5 3c d3 88 fd 3c 07 55 88 bc
       0.027163148 0.02606125 0.030949032 -0.016642107
000080 93 20 0b 3c a7 20 71 3c d8 19 41 3d 3a e7 f8 bc
       0.008491653 0.014717258 0.047143787 -0.030383695
000090 a0 0b 3c bd 95 38 39 bd 73 fe d8 3b a0 a6 1b bd
       -0.045909524 -0.045219976 0.0066221296 -0.038000703
0000a0 d3 a5 17 bc 50 79 bf bc d3 65 14 3c fb 1f 11 bd
       -0.009255844 -0.023373276 0.00905748 -0.03543089
0000b0 3a 97 fc 3c 65 31 49 bd 4d 67 e0 bc cd 0a 29 3c
       0.03083383 -0.049119372 -0.027393008 0.0103175165
0000c0 43 70 49 bd e7 ea 49 3c ea 3c 99 bc 90 de ce bc
       -0.049179327 0.0123240715 -0.018705804 -0.02525261
0000d0 8a ce 12 3d da 41 84 bc 1a a8 41 3c 6d 28 9e bc
       0.035841502 -0.016144682 0.011819864 -0.019306386
0000e0 c3 9c bf 3c 20 81 3a 3d 62 98 44 3d 4d c4 f7 bc
       0.02339018 0.0455333 0.047996886 -0.03024497
0000f0 73 94 4b bd 6d 36 0f bd 33 c6 66 3c 23 6f a4 3c
       -0.04970212 -0.034964014 0.01408534 0.020072525
000100 aa 20 d7 3c aa dd b1 3c d3 3b 47 3d 0d 4e 1b bd
       0.026260693 0.021712143 0.048641037 -0.037916232
000110 25 8f 20 bd 50 44 80 bc a3 f5 1e 3d 90 42 1d bd
       -0.039199013 -0.015657574 0.038808476 -0.038393557
000120 3b 8c 19 3d e7 4e 08 3c 8d 5d fd 3c b8 e7 4a 3d
       0.03748725 0.008319593 0.030928398 0.04953739
000130 6a 56 47 3d ff 9b 44 3d 5a 08 49 bc 8a c8 ae bc
       0.048666395 0.048000332 -0.012270058 -0.021335859
000140 c7 e3 ad 3c 05 a6 2e 3d cd 2b a3 3a ed ea 41 bc
       0.021226777 0.042638797 0.0012448967 -0.011835796
000150 13 7f 04 bc 60 33 92 bc c7 ac c4 3c 95 b0 4b bd
       -0.0080869375 -0.017846763 0.024008168 -0.04972895
000160 b0 44 2e 3d 33 ab f0 ba 8d 4d f8 bc 0d 1b 92 bc
       0.042545974 -0.0018361568 -0.030310417 -0.017835164
000170 ed 6e fb bc 72 f4 31 bd 0d dc a4 3b 13 0c 3a bc
       -0.030692542 -0.04344601 0.005031115 -0.011355418
000180 a3 dd b7 bc e7 83 0b bc 33 e5 e1 bb 97 74 b4 3c
       -0.022444552 -0.008515335 -0.0068937778 0.02202825
000190 3d aa 25 bd 33 a9 99 ba 33 e1 32 ba a7 6b 27 bd
       -0.040445555 -0.0011723399 -0.00068237184 -0.04087415
0001a0 c8 c8 3c 3d 03 2d c2 bc f7 7b 22 3d e3 f9 1c 3d
       0.046089917 -0.023703104 0.039669003 0.038324248
0001b0 cd 7d b1 3a 38 7e 18 3d 90 1c 1a bd da 18 b4 bb
       0.001354152 0.037229747 -0.037624896 -0.0054961266
0001c0 0f f0 28 bd 57 59 f9 bc 0d 69 81 3c 88 9b 18 3d
       -0.041244563 -0.030438108 0.015797162 0.0372577
0001d0 5a 11 f3 bc b7 80 a5 bc cd a9 e5 bc da 58 8e bb
       -0.02967136 -0.020202978 -0.028035069 -0.004344088
0001e0 70 1c 2a bd aa 19 22 bd da 38 32 bc db c5 44 3d
       -0.041531026 -0.039575256 -0.010877812 0.048040252
0001f0 a0 1e 0d 3c 9d 7f aa bc 2a e9 08 3d 68 27 17 3d
       0.008613259 -0.020812804 0.033425488 0.036902815
000200 fd f7 0b 3d 9a fd f3 39 9a 7f b1 bb 1a 06 05 3d
       0.034172047 0.0004653752 -0.0054168226 0.032476522
000210 87 2e dc 3c 65 49 1b 3d 0f 80 13 3d 7a 87 68 bc
       0.026877655 0.03791179 0.036010798 -0.014192456
000220 5a 76 2d 3d cd 46 20 3c 38 e5 4b 3d 18 bd 4b 3d
       0.042349197 0.009782505 0.049779147 0.04974088
000230 b8 c2 2b 3d e3 53 08 3d c0 cd 20 3d e0 84 c0 bc
       0.041933745 0.033283126 0.03925872 -0.02350086
000240 8d 74 9f bc 4d ea 3e bc 23 a5 d1 bc e7 77 16 3d
       -0.019464755 -0.011652541 -0.025591439 0.03673544
000250 9a 29 99 3b 40 7b 4f bc b3 83 b7 bc 17 56 36 bd
       0.0046741487 -0.012663662 -0.022401666 -0.044515695
000260 1a 1d 6b 3b e7 06 34 3d 73 a9 06 3d 63 52 22 3d
       0.00358755 0.043951895 0.032876443 0.03962935
000270 58 ed 0b 3d 03 5c ac 3c 33 b8 bc ba 83 81 17 bd
       0.034161896 0.021039968 -0.0014398157 -0.036988746
000280 cb 93 16 3d 5d 1d 10 bd 7a 4e f6 bc 10 5c a4 3c
       0.03676204 -0.035184253 -0.030066717 0.02006343
000290 33 f3 e0 3c a0 26 d5 bc 23 9c 01 3d 72 aa 3f bd
       0.027459716 -0.026019394 0.031643044 -0.04679341
0002a0 5a 37 43 3c 27 d3 b4 3c 87 29 18 3c 1a 7c e6 bc
       0.011915052 0.022073342 0.009287245 -0.028135348
0002b0 80 4f 0a bd 68 af 23 3d 73 79 34 3c 80 f7 af bc
       -0.033767223 0.039962202 0.011015284 -0.021480322
0002c0 fa 42 45 3d 33 fe 2a bc 80 7c 17 bc 53 db 52 3c
       0.048159577 -0.010436582 -0.009245992 0.012869674
0002d0 a2 81 2a 3d 5d 55 b6 bc cd 28 84 39 5a e3 b7 bc
       0.041627534 -0.022257501 0.000252074 -0.022447277
0002e0 60 86 b9 bc 9a 55 df bb cd 0c 58 b8 9a a0 db 3c
       -0.022647083 -0.0068156244 -5.1510335e-05 0.02680998
0002f0 22 f9 18 bd 63 b1 ed 3c 17 01 20 3d 67 c7 ba bb
       -0.037346967 0.029015249 0.03906354 -0.00570004
000300 b3 c3 92 bb c7 04 4a 3c 9a 7f 3b bd 1a b2 16 3d
       -0.0044788956 0.012330241 -0.045775987 0.036790945
000310 5a 4e 0f bc e7 c8 03 3b 2d 30 c2 3c 0a 8e aa 3c
       -0.008746708 0.002010876 0.023704613 0.020819683
000320 03 86 bd bc cf 6d 16 bd 68 92 45 bd 95 03 2b bd
       -0.02313519 -0.036725815 -0.048235327 -0.041751463
000330 fa 35 2c bc b3 fd 1e bd 1a 6f a5 bb e0 65 d8 bc
       -0.010510916 -0.038816165 -0.0050486447 -0.026415765
000340 d7 17 e8 3c d0 15 0c 3d 0b 43 2d 3d 52 4c 06 bd
       0.02833168 0.03420049 0.042300265 -0.03278763
000350 a5 87 10 bd cd 16 8e 3c e0 12 3b bc 02 51 1b 3d
       -0.03528561 0.017344857 -0.011418074 0.037919052
000360 07 e2 3b bd 23 eb 3d 3d 95 0d 0e bd 75 3b 24 bd
       -0.045869853 0.046366822 -0.03468092 -0.040095765
000370 1a bd ad bb 73 74 b5 bc b0 1a 01 bd 10 d8 e9 3c
       -0.0053020837 -0.022150254 -0.03151959 0.02854541
000380 f3 2b 1e 3d 67 0c e4 3c 00 fc c7 3b 73 c4 eb bb
       0.038616132 0.027837945 0.006103039 -0.0071950494
000390 c7 7b df bc 20 33 43 3d 33 17 df bc 60 90 33 bd
       -0.027280701 0.04765618 -0.027232742 -0.04383886
0003a0 c3 c1 2d 3d 73 22 84 bb 08 9c 09 3d 83 f3 87 bc
       0.042421114 -0.004032427 0.03359607 -0.016595608
0003b0 47 83 1f 3d 4f 6b 10 bd 97 7d f6 3c fb 65 1f 3d
       0.038943555 -0.035258587 0.030089183 0.038915616
0003c0 33 3f 37 ba ea d0 07 3d 00 8f e8 3a b5 82 3b bd
       -0.00069903134 0.03315822 0.0017742813 -0.04577895
0003d0 87 71 b3 3c 23 36 1f bd 00 f5 cd 3a 0d 39 38 bd
       0.02190472 -0.03886999 0.0015713274 -0.044976283
0003e0 90 04 c3 bc 40 17 74 bc 90 2d 9f bc 55 bd 49 bd
       -0.023805887 -0.014898121 -0.019430906 -0.049252827
0003f0 53 71 cb bc 32 c3 3d bd 42 37 2b bd 12 53 4c bd
       -0.02483431 -0.04632873 -0.041800745 -0.04988391

fc1.bias f4 [120]
000000 cd e5 dc bb 1a f7 1e bd 9a 15 62 3b 1d ef f7 3c
       -0.0067412616 -0.038809873 0.0034497739 0.030265385
000010 cd 5d 8c 3a 13 66 dd bc 4d df 02 3d d8 01 23 bd
       0.0010709107 -0.027026212 0.031951237 -0.03979668
000020 53 d7 79 3c 1f 53 47 bd 27 e0 f0 bc 00 e9 b2 3a
       0.015249091 -0.048663255 -0.02940376 0.0013649762
000030 20 b6 15 bc 73 ea de 3c b3 65 58 3c c3 88 a8 bc
       -0.00913766 0.027211403 0.013207841 -0.020573026
000040 73 0b 3f bc 6a a8 25 bd a0 e4 11 bd f3 06 47 3d
       -0.011660445 -0.040443815 -0.035618424 0.04859061
000050 9a fb 75 bb fb 9b 27 bd 80 fe 40 3b 8d 2d cc 3b
       -0.0037534 -0.04092024 0.0029448569 0.006231016
000060 9a 9f 0d ba 35 7d 10 3d 53 e9 83 bc 9f 4b 03 3d
       -0.00054025056 0.035275657 -0.016102469 0.03205454
000070 c3 37 de bc 1a bf 2d bd af d3 1a bd 53 f3 53 3c
       -0.027126199 -0.042418577 -0.037799533 0.012936431
000080 03 01 ba 3c 53 b4 06 bc 53 2e c2 3c 53 24 ac bc
       0.02270556 -0.008221704 0.02370373 -0.021013414
000090 67 e4 0b 3b 4d d8 f5 bc 68 0b 15 3d e3 52 b2 3c
       0.0021345855 -0.030010367 0.03638783 0.02176804
0000a0 3d 50 ed bc 10 77 85 3c ea e6 d4 bc 97 98 ff bc
       -0.028968925 0.016292125 -0.025989015 -0.03120069
0000b0 d2 65 38 bd 70 66 37 bd 9a bb 2a 3d 7a 37 cb 3c
       -0.04501898 -0.044775426 0.041682817 0.024806727
0000c0 2d f8 00 3d da 31 27 3d 80 7b dd bc cd 72 e1 3a
       0.03148668 0.040819027 -0.027036428 0.0017200351
0000d0 97 cb 87 3c cb 92 3e bd d0 91 bd bc 0a 3e cb 3c
       0.016576571 -0.04652671 -0.023140818 0.024809856
0000e0 a7 7a 97 bc 1a 7c 44 3d 00 22 80 3a e7 a6 c7 bb
       -0.018491102 0.047969915 0.0009775758 -0.0060928944
0000f0 65 fc 22 bd 95 ff 2a bd dd b9 94 bc 97 bf a1 bc
       -0.039791483 -0.04174765 -0.018155033 -0.019744677
000100 9a 99 0e 3d 00 0f 74 3b 3b 9f 13 3d 18 58 1d 3d
       0.034814455 0.0037240386 0.036040526 0.03841409
000110 9a cc a7 ba cd 3a 05 ba 47 a9 1c 3c 87 a4 35 bc
       -0.0012802065 -0.00050823094 0.009561843 -0.01108659
000120 5d 6b 23 3d 3a 80 a6 3c da 71 c4 bb 9d 26 1f 3d
       0.03989731 0.020324815 -0.0059950175 0.038855184
000130 b7 68 21 3d a7 72 3b 3c ed 37 29 bc cd 75 b0 bc
       0.039406504 0.0114409095 -0.010328275 -0.021540547
000140 b3 94 0f 3d ba 4c d4 bc 67 b1 d2 bb e7 78 e2 3b
       0.03505392 -0.025915492 -0.0064298394 0.0069113853
000150 67 5d 5f 3c cd ac 61 b9 d8 84 1f bd 4a 5f 2d bd
       0.013633109 -0.00021522045 -0.03894505 -0.042327203
000160 c0 cf 35 bd 33 11 1d bc 27 b0 d2 bb 80 88 90 3c
       -0.04438758 -0.00958662 -0.0064296904 0.017643213
000170 3d be ca bc 3a d6 07 3d 10 df ab 3c ff e7 33 bd
       -0.024748916 0.033163287 0.020980388 -0.04392242
000180 58 8d 4b 3d ea 49 42 bd 97 c0 cc 3c 73 64 56 3c
       0.049695343 -0.04743377 0.024994178 0.013085472
000190 67 96 5e 3b e7 f5 f0 3b 8a 06 ae 3c 50 41 16 3d
       0.0033964159 0.0073535326 0.021243352 0.03668338
0001a0 af b1 30 bd 3a 30 eb bc 27 57 ba bc 00 90 8d bc
       -0.043138202 -0.02870952 -0.022746636 -0.017280579
0001b0 20 36 81 3c 13 e4 8e bc cd 11 59 3c 53 38 bb bc
       0.01577288 -0.017442739 0.013248873 -0.022854006
0001c0 9d c3 e4 3c e7 e0 18 bc e7 4f 09 3d b2 3c 02 3d
       0.027925307 -0.009330965 0.033523466 0.031796165
0001d0 b2 d8 07 3d 85 04 20 bd f7 0d 15 3d c7 74 52 bc
       0.03316564 -0.03906681 0.03639027 -0.012845225

fc2.weight f4 [84, 120]
000000 ca 34 8a 3d 42 c7 8c bd fc f0 48 bd c3 18 a0 bd
       0.0674835 -0.06873943 -0.049057946 -0.07817223
000010 5f 26 72 3d 5d e0 f8 3c 4f e2 90 39 ed 57 5c 3d
       0.059118625 0.030380422 0.00027634433 0.05379479
000020 b3 d7 09 bd 72 d1 5a 3d 6b e5 b4 bc 76 b4 73 3d
       -0.033652972 0.0534224 -0.022082051 0.059498273
000030 ac d9 8c bc 93 fa 00 3d fe 8e 91 bd 72 f2 9e 3d
       -0.017193638 0.031488966 -0.07107352 0.077610865
000040 8b 7e 1d 3d b6 44 52 3c 89 cf 9f 3d 22 0c 11 3d
       0.03845076 0.012833765 0.07803256 0.03541196
000050 4a c4 49 bc 9c 77 e2 3b 5d 20 77 bd 53 14 03 bd
       -0.012314865 0.006911231 -0.0603336 -0.032001805
000060 4d 45 f4 3b c5 9f ad bd 3c 7b 68 3d c7 cf fd bb
       0.0074545504 -0.08477739 0.05675815 -0.0077457163
000070 79 76 43 3b 59 ee 76 3d f1 3d 2e 3d 2f 86 bf 3c
       0.0029825254 0.0602859 0.04253954 0.023379413
000080 f9 4c 84 ba 81 f3 a2 3d 7b d1 06 bd 33 27 ff 3a
       -0.001009374 0.07956601 -0.03291462 0.0019466638
000090 03 e6 a3 bd b5 7d 4e 3d 92 f3 52 bc 98 50 89 bd
       -0.08002856 0.050412852 -0.0128754545 -0.06704825
0000a0 ef 9e a1 3d c5 ae d4 bc 63 86 2a 3d 2f 65 c7 ba
       0.07891642 -0.025962243 0.041632067 -0.001521265
0000b0 a1 3f df 3c 21 de ab 3d 59 78 a1 3c ca ba 97 bd
       0.02725202 0.08391977 0.019710707 -0.07408674
0000c0 c3 b6 cb bb cb f6 41 3d e7 bd 71 3d 56 0c ab 3d
       -0.0062168553 0.0473545 0.059018996 0.08351962
0000d0 13 95 97 3d be 84 c2 ba 25 0b 85 3d 0a e3 4b bc
       0.074014805 -0.0014840586 0.06496266 -0.012444267
0000e0 b2 fa 65 bc b7 52 ac bd 6b aa 64 3d 80 c7 9e bd
       -0.014036821 -0.08414214 0.055826586 -0.07752895
0000f0 a7 a8 bb 3b 92 8f 89 bc 00 a5 ab 3d 45 b3 1d bd
       0.005726892 -0.016792092 0.083810806 -0.038501043
000100 b7 cd 0d bd 3d 3b 1d bd 59 20 65 3d 0f 70 4e 3c
       -0.034620013 -0.038386572 0.055939052 0.012599959
000110 da 3c ac 3d bb e8 8f 3b 06 b1 39 3b ac c9 87 bd
       0.08410044 0.0043917573 0.0028334274 -0.06630263
000120 68 19 b4 3d f7 39 be bc f1 eb 82 bd 44 a7 59 3d
       0.08793908 -0.023221 -0.063926585 0.053138033
000130 35 d8 81 bd 29 34 1c 3d aa 24 b7 bc 5c df 3f bd
       -0.06340066 0.03813568 -0.02235635 -0.04684387
000140 6e ab 31 bc 04 2a 54 3d d6 e5 83 bd 6c 0e 9d 3d
       -0.010844095 0.05179788 -0.06440322 0.076687664
000150 ae 87 78 bc 07 a8 f7 bc a9 b7 7e 3d 89 0d 43 3d
       -0.015169067 -0.030231489 0.06218687 0.04762033
000160 8c 35 9b 3d c0 68 61 3d a3 55 b7 3d bf 17 98 3d
       0.07578573 0.055031538 0.08951881 0.07426404
000170 c3 57 18 3d 93 0f 25 3d 88 b9 9c 3d ad 5b 6c bd
       0.03719307 0.040298056 0.07652575 -0.057704616
000180 7d 1b 77 3c 6e 21 8c 3c e8 5b 51 3d 92 ba fe 3c
       0.015082237 0.017105784 0.05111304 0.031094823
000190 db f9 03 bc 98 1d 71 3c f4 b4 1b 3d 82 5f 1e bd
       -0.008055176 0.014716528 0.038014367 -0.038665302
0001a0 f4 17 62 3d 5f 18 dd bc 21 22 37 39 c3 42 93 bd
       0.055198625 -0.02698916 0.00017464954 -0.07190468
0001b0 ac 59 a4 3b 62 38 ab 3d 82 59 b8 bc 8b 1e 76 bd
       0.0050155725 0.083603635 -0.022503618 -0.06008772
0001c0 05 9a b4 3d d4 0a 17 3d ee 50 07 3d 52 b2 70 3d
       0.088184394 0.03687556 0.033036165 0.05876381
0001d0 62 37 3d bd c3 99 86 3d 18 f7 6a 3d f2 23 7b bc
       -0.046195395 0.065722965 0.057364553 -0.015328394
0001e0 8a 8d be 3c 3b ac 92 3d c7 c5 00 3b 3e 56 7e bc
       0.02326085 0.071617566 0.0019649134 -0.015523491
0001f0 9b 68 8f 3d df f2 b1 3d 87 97 8a bd 5e 11 ad 3b
       0.07002374 0.08688902 -0.06767183 0.0052816113
000200 7e bf 79 3d 24 5a 81 3d 6f bf b2 3d 33 39 ef 3c
       0.060973637 0.06316021 0.08727919 0.02920208
000210 8b af a2 3b 92 94 22 bc 0f a6 81 3d d1 82 8f 3d
       0.004964774 -0.009923117 0.06330501 0.07007373
000220 4e f7 e4 bc 0d 56 98 bc 4b 26 2c 3d b2 96 27 bd
       -0.027949955 -0.01859572 0.042028707 -0.0409152
000230 b7 f3 54 bd 25 92 f9 bc 92 6c 2b bd 2c bf b6 bb
       -0.051990237 -0.030465195 -0.041851588 -0.0055769887
000240 dc b0 93 bd e4 d5 0b 3d 51 78 89 3d 92 56 36 3d
       -0.072114676 0.03413953 0.06712402 0.044516154
000250 55 75 b2 3d ff ee b6 bd 82 47 ab 3d 1f 44 f3 bc
       0.087137856 -0.08932304 0.083632484 -0.029695569
000260 23 c3 7a 3c ba 14 71 bd da 0b 98 3d 2a fd 7b 3d
       0.015305313 -0.058857657 0.074241355 0.061520733
000270 cf 51 23 bd 03 fa a2 bd c5 ad 9b 3d c1 6e 97 bd
       -0.03987294 -0.07957842 0.07601503 -0.073941715
000280 e6 45 c7 3c e3 18 a6 bc 2b aa fa bb 2c 2e ba 3d
       0.024325322 -0.020275539 -0.00764968 0.09090838
000290 0d 14 74 bd 63 e7 36 bc 53 dd 1b bd 22 17 95 3b
       -0.059589434 -0.011163565 -0.038052868 0.004549877
0002a0 87 e2 b5 3d 0e 0f 87 3c 42 20 b4 bd 72 cf 98 3d
       0.08881097 0.01648667 -0.08795215 0.07461442
0002b0 d9 0d b8 bd a0 fa b1 bd 30 3c 84 3d 33 af af bd
       -0.08987016 -0.08690381 0.06456792 -0.085783385
0002c0 ea 20 16 3d 65 7f ed 3b 46 ff 98 b6 ed 39 ab 3d
       0.036652483 0.0072478526 -4.5596707e-06 0.08360658
0002d0 2e 6f 84 bd ed ce b4 3d 12 92 f7 b6 39 88 f0 3c
       -0.06466518 0.088285305 -7.3781785e-06 0.029361831
0002e0 d6 cd a6 3d 27 30 0c 3c 24 35 06 3d 8c 97 8d bc
       0.08144729 0.008556402 0.032765523 -0.017284177
0002f0 81 8c 3f bd 38 bf 19 3d 19 e1 aa bd ab ea 92 bc
       -0.046764854 0.037535876 -0.08343715 -0.017934164
000300 d8 ef 8b 3d 4e 03 84 3b d6 70 90 3d 25 71 96 bd
       0.06832856 0.0040287143 0.07052772 -0.07345799
000310 81 1e 23 3c d0 67 28 3d d5 97 a2 bd 00 8a cf 3c
       0.009956003 0.04111463 -0.07939116 0.025334358
000320 15 31 15 3d a9 a4 98 bd a6 55 4f bc 17 1e 68 bd
       0.03642376 -0.074532814 -0.0126546975 -0.05666932
000330 32 2d 3d bd b9 5e a6 bd c7 e9 7e bd 5a 77 8f 3b
       -0.04618568 -0.08123536 -0.062234666 0.0043782415
000340 dc 77 02 bd 5c f1 cf 3c b9 da 10 bd 90 a9 8c 3d
       -0.031852588 0.025383644 -0.03536484 0.06868279
000350 d3 00 8a 3d 94 9b fe 3c f7 2e 76 3c 5d e2 f1 bc
       0.067384385 0.031080045 0.015025846 -0.029526884
000360 4c 53 93 3d ee 8a b4 3c 88 09 cd 3c 51 e3 a8 bd
       0.07193622 0.022038903 0.025028959 -0.08246482
000370 a4 56 2c bd 6f 1b 51 bc 84 5d 46 3d 93 a7 3c 3c
       -0.042074814 -0.012762888 0.048429027 0.011514562
000380 33 37 b9 3c cb 6e 58 3d 30 52 9a bd 94 14 90 bd
       0.022609329 0.052840035 -0.07535207 -0.07035175
000390 7d 07 54 bc a5 43 91 3d 8e 56 62 3d dc 0f 25 3d
       -0.0129412385 0.0709298 0.055258326 0.040298328
0003a0 f7 1f 89 bd 2d 1f 84 bd 83 96 d4 3c 66 a5 82 3c
       -0.0669555 -0.06451259 0.025950676 0.015948009
0003b0 00 d8 7b bd b0 7c 92 3d bf b0 a3 bc f3 38 21 bc
       -0.06148529 0.071526885 -0.01998174 -0.009840238
0003c0 fc 3a f7 3b 8a 13 a7 3d b9 27 ba bd fc c3 a7 bd
       0.0075448733 0.08158024 -0.09089608 -0.08191678
0003d0 02 fe bb 3c a1 24 ad bc 16 6c 35 bd d9 5e 06 bc
       0.022948269 -0.02113563 -0.044292532 -0.008201324
0003e0 e1 0b 0d 3c 79 f6 76 3d 14 7e 34 3d 90 e0 44 3d
       0.008608789 0.06029365 0.04406555 0.048065722
0003f0 3e 83 39 bc 9d 4d 17 bc 09 c7 a4 bd 3e a6 5d bd
       -0.0113227945 -0.009234813 -0.080457754 -0.05411362

fc2.bias f4 [84]
000000 30 5d a2 bd ec 62 bf 3c 16 de d6 bc 58 be 68 bd
       -0.0792793 0.0233626 -0.026228946 -0.05682215
000010 b3 2d 8b 3d d4 1a 38 3d cf 77 79 bd 9b 85 16 3c
       0.06795826 0.04494746 -0.060905274 0.009187127
000020 55 5f 8d 3d 50 6d 8c bd 7c 4f 80 bd 17 36 87 3d
       0.06902949 -0.06856787 -0.062651604 0.06602114
000030 25 8e 87 bd 14 68 8e bd 76 16 97 3d 1c 6a 88 3d
       -0.06618909 -0.06953445 0.07377331 0.06660864
000040 05 f4 7a 3d e6 ae a0 bd c0 1d 80 3d d6 d0 19 bd
       0.06126787 -0.07845859 0.06255674 -0.037552677
000050 73 cb 84 bc 55 a8 65 bd 60 0e 1e 3d ca 66 be bc
       -0.016210293 -0.056068737 0.038587928 -0.023242373
000060 89 41 18 3d 40 a4 c9 bc d2 e8 2b bc 4a 20 9e bd
       0.037171874 -0.024614453 -0.01049252 -0.077210024
000070 da 9d 1c bd 7e 51 59 3d a1 6b 2d bd 08 a4 9b 3c
       -0.038236476 0.053056233 -0.04233897 0.018999115
000080 87 9d b0 3d 94 1f 82 bd cc 7a 9d 3d 2c fc f7 3c
       0.08623796 -0.06353679 0.07689437 0.030271612
000090 ee e1 c4 3c fe bd b2 bd 89 c4 96 bd a9 fb 12 3d
       0.024033513 -0.087276444 -0.07361705 0.035884533
0000a0 54 6c 90 bd 88 b4 0d bc 00 95 68 3d 89 81 e8 3c
       -0.07051912 -0.008648999 0.056782722 0.02838208
0000b0 83 4d 3e 3d 3b 17 2c 3d 9c 5d 8b 3d 3b df 06 bd
       0.04646064 0.04201434 0.06804964 -0.032927733
0000c0 a6 51 85 3d 84 ab d0 3c 2f 10 12 bd 1c 48 a7 3d
       0.06509714 0.02547241 -0.035659965 0.08168051
0000d0 4c 9b b9 bc 6c 32 13 bd 5f 50 87 3d cc e1 6c 3d
       -0.02265706 -0.035936758 0.066071264 0.057832524
0000e0 f0 93 72 3d 1d 9d 6b bd 4b c8 ac bd 3f b6 2e 3c
       0.059223115 -0.05752288 -0.0843664 0.010663568
0000f0 eb 1d 33 bc 25 c6 f8 3c e9 b1 bc 3c 1c bd f2 3c
       -0.010932426 0.03036792 0.023034053 0.02963119
000100 82 99 ac 3c 97 c4 a1 3d 1e 06 1b bd af 94 88 bd
       0.021069292 0.07898825 -0.03784763 -0.06668984
000110 63 2b 70 bd d4 cf c2 3c b1 8e 3a 3d 76 05 48 bd
       -0.058635127 0.02378074 0.045546237 -0.048833333
000120 64 ee a8 3d 08 01 24 3c ba 87 1d 3d 8a fa 38 bd
       0.082485944 0.0100100115 0.038459517 -0.045160808
000130 59 3b d3 3c db ee 81 3d 0c 33 b6 3b 8e 9b 06 3c
       0.025785135 0.06344386 0.0055602845 0.008215798
000140 a1 4e 72 3c b5 3e 2e 3b 7f 6a 7a 3d ff eb aa 3d
       0.014789254 0.002658767 0.06113672 0.08345794

fc3.weight f4 [10, 84]
000000 d0 a2 ac 3d 0f 7c 80 bd 48 f3 bb 3d 69 f6 6b 3d
       0.084294915 -0.06273662 0.091772616 0.057608042
000010 5c e5 99 3c e9 03 b4 bb 11 bb bb 3d ec 10 95 3d
       0.018786125 -0.00549363 0.091665395 0.07278618
000020 c1 24 99 3c e0 a7 8e bd 1c ba b1 bd 68 a8 84 3d
       0.018694283 -0.06965613 -0.08678076 0.064774334
000030 eb 54 d2 bd 89 43 5f bd 20 59 57 bd b4 92 23 bb
       -0.10270103 -0.054507766 -0.05257523 -0.0024959268
000040 b3 1e d6 3b 75 25 b9 bd 84 9f 45 bd fe 19 9c 3d
       0.0065344214 -0.090403475 -0.04824783 0.07622145
000050 29 f6 08 3b 4d 77 dd bb 64 6e 55 3d f2 11 c3 3d
       0.0020898676 -0.0067586065 0.05210723 0.09524907
000060 ae db 17 bc b4 be 92 bc 0b 23 31 3d 3c 2b c4 3d
       -0.009268684 -0.0179132 0.04324631 0.09578559
000070 13 00 ee bc 09 ad b6 bd 7a 2e 8c bb ae b5 cb bd
       -0.02905277 -0.089197226 -0.0042780014 -0.09946762
000080 27 63 aa bd ad 28 12 bc 5b da 2e bd ce 0d 3a 3d
       -0.08319693 -0.008920831 -0.04268871 0.04542332
000090 d4 28 84 bb ac 0a 6e bd 3f 35 25 bc 08 2c d6 bd
       -0.0040331874 -0.058115646 -0.010083496 -0.10457617
0000a0 24 2d 75 3b 27 7c 7d bd b2 17 ba 3c ac 1f e1 3c
       0.003741094 -0.06188598 0.022716377 0.027480923
0000b0 5a dc cb bd 56 0b d4 3b e2 65 bd bd ef b0 7c 3d
       -0.09954138 0.006471078 -0.09247948 0.061692175
0000c0 50 b5 cf 3d 2c 86 6d bd 42 d8 83 3d 8a 11 1d bd
       0.101420045 -0.057989284 0.06437732 -0.038346805
0000d0 dc 9d 9f bd 8d 1c 85 3c f0 c4 27 3d 35 b8 c0 bd
       -0.07793781 0.016248966 0.0409593 -0.09410135
0000e0 2e a4 d0 bd ec 4d 9d 3d a5 64 8e bc d6 33 ae 3d
       -0.10187565 0.07680878 -0.017381975 0.08505981
0000f0 54 fd 6a bc c3 0e 05 3d be 4f 8f bd ff 87 09 3d
       -0.014342625 0.03248478 -0.069976315 0.03357696
000100 48 00 96 3d 6c 66 b8 3b 4e b7 50 3d 0d 77 b3 bb
       0.073242724 0.005627444 0.050956063 -0.0054768384
000110 bb 72 77 bd 3b 15 9a bd ef 35 99 3d e4 c5 11 3d
       -0.06041215 -0.07523581 0.0748099 0.035589114
000120 42 c9 65 bd d4 00 82 bd dc 10 b2 3d 02 5b 9d bd
       -0.056100138 -0.06347814 0.08694622 -0.07683374
000130 f3 19 23 3d 6d 86 fb 3b b8 b3 c1 3d 3e c5 9d 3c
       0.03981967 0.007675937 0.09458107 0.019259091
000140 cb 24 38 bd 43 c2 1a 3d 1e 73 00 3d fd e7 a5 bd
       -0.044956964 0.03778292 0.031359784 -0.08100889
000150 b4 1c 76 3d d2 58 12 3d f3 8d 14 3d b2 f3 b7 3d
       0.060085967 0.035729237 0.036268186 0.08982028
000160 9a 34 38 bd 16 8f a7 3d 16 bf 2b 3c b2 8e cc 3d
       -0.04497204 0.08181588 0.01048257 0.099881545
000170 5f 65 8d bd 2b 86 88 3d a5 5e 89 3d 60 1f bd bc
       -0.069041006 0.066662155 0.06707505 -0.02308625
000180 50 7d d9 bb 9a b4 7d 3d cd 91 95 3d 1e c9 0b bc
       -0.006637253 0.061939813 0.073032 -0.008531837
000190 46 75 46 3b 3a 35 60 bd ba 3f a8 3d 6e 67 0d bd
       0.0030282303 -0.05473826 0.0821528 -0.034522466
0001a0 98 53 a0 3c 88 c1 da 3d b6 74 d6 bd c3 32 a6 bc
       0.01957111 0.106814444 -0.104714796 -0.020287877
0001b0 91 99 5b bc 99 25 af bd 89 c9 a0 3d d9 a8 29 3d
       -0.013403312 -0.08552093 0.0785094 0.04142079
0001c0 9f d8 d6 bb e0 ce c7 bc 01 85 ae bc 0e a5 89 3d
       -0.006556585 -0.024390638 -0.021303656 0.06720935
0001d0 c3 f7 b8 bd 89 75 5a bb 94 3f d3 bd 71 3d 98 bd
       -0.09031632 -0.0033334217 -0.10314861 -0.07433594
0001e0 c3 7a 55 3c b7 2d 94 3d a9 35 89 3d 44 92 e9 bc
       0.013029757 0.07235282 0.06699688 -0.028512128
0001f0 37 67 d2 bc 63 2f 8e bd f7 bf 50 3d a6 da 4f bd
       -0.025683982 -0.06942632 0.050964322 -0.05074563
000200 dc f5 ab bc b3 99 8e bc b6 dc c1 3d 57 f9 9f bd
       -0.020991258 -0.017407274 0.094659254 -0.0781123
000210 e3 a3 be 3c 4f 33 90 bd c1 ba cc 3d 75 44 2c 3d
       0.023271507 -0.07041036 0.09996558 0.042057473
000220 d0 05 a7 3d 04 bc b2 3d 7c 67 53 bd 0c 9f dc 3c
       0.081554055 0.087272674 -0.051612362 0.026931308
000230 e5 6f 82 bc 99 76 f5 3c 17 c2 d1 bd 12 17 ce bd
       -0.015922496 0.029963778 -0.10242098 -0.10062994
000240 7f 6c b2 3b d4 d9 a2 3d 8d 99 3d bd b8 9b 16 3d
       0.0054450626 0.07951704 -0.046289016 0.0367696
000250 9d 92 7d 3d d3 a7 d5 3d 78 23 04 3d fd 03 e0 3c
       0.0619074 0.104324006 0.032260388 0.027345652
000260 48 c5 a1 bb 79 0f 58 3d f2 6e 3d 3c fd bc dc 3d
       -0.004936848 0.05274913 0.011562096 0.10778234
000270 a1 9a 4e 3d f6 9d b5 bd a2 0e 70 bd 6c 92 67 3d
       0.050440434 -0.08868019 -0.058607705 0.056536123
000280 96 77 ca bd af af cb bd 86 de bf bd 60 1d 8a 3d
       -0.098860905 -0.09945618 -0.09368615 0.06743884
000290 ab 23 b2 3d 78 3a f0 bc ae 59 05 3d a2 98 c9 bd
       0.086982094 -0.029324755 0.03255623 -0.098435655
0002a0 5d 35 0d bd 6e 64 57 3d 22 fc 8d 3d a3 84 a9 3c
       -0.03447472 0.05258601 0.06932856 0.020693129
0002b0 0a 79 3d 3d 97 a5 02 bd e0 da 32 bd 30 dd 08 3d
       0.04625801 -0.0318962 -0.043665767 0.033414066
0002c0 e1 e8 4d 3c 92 8a bf 3d 8a 34 1c bd e4 26 0e 3c
       0.01256773 0.09352602 -0.038136043 0.008676264
0002d0 19 cd 78 3d 4c a0 d0 3d 1d 99 d8 bd be 49 d4 3d
       0.06074247 0.10186824 -0.10576079 0.10365628
0002e0 06 fa 14 bd ec 96 56 3d 42 fa a0 bc 20 14 9e bd
       -0.036371253 0.052390024 -0.019650582 -0.07718682
0002f0 f0 37 8a bd 57 4b 40 ba 7f 26 5b 3d b6 bf 53 3d
       -0.067489505 -0.0007335445 0.05350351 0.0516965
000300 45 0d d6 bc 25 66 85 3d 72 e1 fd 3c 56 b9 8b 3d
       -0.026129374 0.06513623 0.03099129 0.068224594
000310 65 f4 cd 3d 43 c5 a4 bd 3d 68 b9 3d 58 c8 c0 3d
       0.1005638 -0.08045437 0.09053085 0.094132125
000320 04 ac 1b bd 08 e1 94 bd 38 8a be 3d 3c c1 43 bd
       -0.038005844 -0.07269484 0.09303707 -0.047791705
000330 c0 5b ce 3d f2 34 b7 3c d4 ed da bc f7 5d 1f bc
       0.10076094 0.022364113 -0.026724733 -0.009726993
000340 cd ce 07 bd 3c 38 48 bd c1 2a 79 bd 4d e4 8e 39
       -0.033156205 -0.048881754 -0.06083179 0.00027254448
000350 a9 d0 25 bd fe 0f 42 bd df cf d2 3d 7d 7a 9f 3d
       -0.040482197 -0.047378533 0.102935545 0.07787035
000360 70 7d 20 bd 7b fc d9 3d 1f ce 87 3c 22 e4 d1 bd
       -0.039182127 0.1064386 0.016577778 -0.10248591
000370 db a9 dc 3d 95 4e be 3d c2 15 a0 3a 0e b0 80 bc
       0.10774585 0.09292332 0.0012213516 -0.01570895
000380 6c bd 9c 3d 8f ee 28 3d 1b 90 07 bd 47 7d ac 3d
       0.07653317 0.041243132 -0.033096414 0.08422332
000390 5a 69 98 bd b3 61 c0 bd a3 02 ba 39 e2 c7 96 3c
       -0.07441969 -0.09393635 0.0003547865 0.018405858
0003a0 b4 d7 8d bd c8 0b 15 bd 6a 4d 78 bd a1 d5 4f 3d
       -0.06925908 -0.03638819 -0.060620703 0.05074084
0003b0 bf ca 71 bd 74 1a 60 3d 6c 20 cc bb 60 f2 a0 bb
       -0.059031244 0.054712728 -0.006229451 -0.004911706
0003c0 f1 af 47 bb d2 e8 a2 3c b9 1c 40 3d 6c d0 41 3b
       -0.003046986 0.019886408 0.046902392 0.0029573692
0003d0 80 c0 36 bc 17 38 41 3d fd 3b ba 3d 9c e3 ca 3d
       -0.011154294 0.047172632 0.09093473 0.09906694
0003e0 44 e8 c0 bc 3f e3 e3 bc 53 6b d5 bc ea dc 91 3d
       -0.023548253 -0.02781832 -0.026052153 0.07122214
0003f0 21 b9 cd 3d 18 76 d6 3d 5d 69 28 bc 40 f1 a5 3d
       0.10045076 0.10471743 -0.010279027 0.081026554

fc3.bias f4 [10]
000000 c4 ee d3 3d 3b 34 23 3d 05 6b ce bc 86 c5 46 3d
       0.10348275 0.039844733 -0.025197515 0.048528217
000010 78 8f b3 bd 11 a0 d9 3c 1d f1 d2 3d 3f 41 b7 3b
       -0.08767599 0.026565583 0.10299895 0.0055924947
000020 72 3c 67 bd 62 d4 d7 bd
       -0.05645413 -0.10538556
